…
I0424 08:08:42.559830  8667 solver.cpp:81] Creating training net from train_net file: train.prototxt
I0424 08:08:42.560354  8667 net.cpp:358] The NetState did not contain stage 'deploy' specified by a rule in layer dice
I0424 08:08:42.560484  8667 net.cpp:58] Initializing net from parameters: 
state {
  phase: TRAIN
}
layer {
  name: "data"
  type: "Python"
  top: "data"
  top: "label"
  python_param {
    module: "voc_layers"
    layer: "VOCSegDataLayer"
    param_str: "{\'voc_dir\': \'/home/zeven/caffe/examples/fcn/CT-fcn32s/CTData\', \'seed\': 1337, \'split\': \'train\', \'mean\': (166.93918, 166.93918, 166.93918)}"
  }
}
layer {
  name: "conv1_1"
  type: "Convolution"
  bottom: "data"
  top: "conv1_1"
  param {
    lr_mult: 1
    decay_mult: 1
  }
  param {
    lr_mult: 2
    decay_mult: 0
  }
  convolution_param {
    num_output: 64
    pad: 100
    kernel_size: 3
    stride: 1
  }
}
layer {
  name: "relu1_1"
  type: "ReLU"
  bottom: "conv1_1"
  top: "conv1_1"
}
layer {
  name: "conv1_2"
  type: "Convolution"
  bottom: "conv1_1"
  top: "conv1_2"
  param {
    lr_mult: 1
    decay_mult: 1
  }
  param {
    lr_mult: 2
    decay_mult: 0
  }
  convolution_param {
    num_output: 64
    pad: 1
    kernel_size: 3
    stride: 1
  }
}
layer {
  name: "relu1_2"
  type: "ReLU"
  bottom: "conv1_2"
  top: "conv1_2"
}
layer {
  name: "pool1"
  type: "Pooling"
  bottom: "conv1_2"
  top: "pool1"
  pooling_param {
    pool: MAX
    kernel_size: 2
    stride: 2
  }
}
layer {
  name: "conv2_1"
  type: "Convolution"
  bottom: "pool1"
  top: "conv2_1"
  param {
    lr_mult: 1
    decay_mult: 1
  }
  param {
    lr_mult: 2
    decay_mult: 0
  }
  convolution_param {
    num_output: 128
    pad: 1
    kernel_size: 3
    stride: 1
  }
}
layer {
  name: "relu2_1"
  type: "ReLU"
  bottom: "conv2_1"
  top: "conv2_1"
}
layer {
  name: "conv2_2"
  type: "Convolution"
  bottom: "conv2_1"
  top: "conv2_2"
  param {
    lr_mult: 1
    decay_mult: 1
  }
  param {
    lr_mult: 2
    decay_mult: 0
  }
  convolution_param {
    num_output: 128
    pad: 1
    kernel_size: 3
    stride: 1
  }
}
layer {
  name: "relu2_2"
  type: "ReLU"
  bottom: "conv2_2"
  top: "conv2_2"
}
layer {
  name: "pool2"
  type: "Pooling"
  bottom: "conv2_2"
  top: "pool2"
  pooling_param {
    pool: MAX
    kernel_size: 2
    stride: 2
  }
}
layer {
  name: "conv3_1"
  type: "Convolution"
  bottom: "pool2"
  top: "conv3_1"
  param {
    lr_mult: 1
    decay_mult: 1
  }
  param {
    lr_mult: 2
    decay_mult: 0
  }
  convolution_param {
    num_output: 256
    pad: 1
    kernel_size: 3
    stride: 1
  }
}
layer {
  name: "relu3_1"
  type: "ReLU"
  bottom: "conv3_1"
  top: "conv3_1"
}
layer {
  name: "conv3_2"
  type: "Convolution"
  bottom: "conv3_1"
  top: "conv3_2"
  param {
    lr_mult: 1
    decay_mult: 1
  }
  param {
    lr_mult: 2
    decay_mult: 0
  }
  convolution_param {
    num_output: 256
    pad: 1
    kernel_size: 3
    stride: 1
  }
}
layer {
  name: "relu3_2"
  type: "ReLU"
  bottom: "conv3_2"
  top: "conv3_2"
}
layer {
  name: "conv3_3"
  type: "Convolution"
  bottom: "conv3_2"
  top: "conv3_3"
  param {
    lr_mult: 1
    decay_mult: 1
  }
  param {
    lr_mult: 2
    decay_mult: 0
  }
  convolution_param {
    num_output: 256
    pad: 1
    kernel_size: 3
    stride: 1
  }
}
layer {
  name: "relu3_3"
  type: "ReLU"
  bottom: "conv3_3"
  top: "conv3_3"
}
layer {
  name: "pool3"
  type: "Pooling"
  bottom: "conv3_3"
  top: "pool3"
  pooling_param {
    pool: MAX
    kernel_size: 2
    stride: 2
  }
}
layer {
  name: "conv4_1"
  type: "Convolution"
  bottom: "pool3"
  top: "conv4_1"
  param {
    lr_mult: 1
    decay_mult: 1
  }
  param {
    lr_mult: 2
    decay_mult: 0
  }
  convolution_param {
    num_output: 512
    pad: 1
    kernel_size: 3
    stride: 1
  }
}
layer {
  name: "relu4_1"
  type: "ReLU"
  bottom: "conv4_1"
  top: "conv4_1"
}
layer {
  name: "conv4_2"
  type: "Convolution"
  bottom: "conv4_1"
  top: "conv4_2"
  param {
    lr_mult: 1
    decay_mult: 1
  }
  param {
    lr_mult: 2
    decay_mult: 0
  }
  convolution_param {
    num_output: 512
    pad: 1
    kernel_size: 3
    stride: 1
  }
}
layer {
  name: "relu4_2"
  type: "ReLU"
  bottom: "conv4_2"
  top: "conv4_2"
}
layer {
  name: "conv4_3"
  type: "Convolution"
  bottom: "conv4_2"
  top: "conv4_3"
  param {
    lr_mult: 1
    decay_mult: 1
  }
  param {
    lr_mult: 2
    decay_mult: 0
  }
  convolution_param {
    num_output: 512
    pad: 1
    kernel_size: 3
    stride: 1
  }
}
layer {
  name: "relu4_3"
  type: "ReLU"
  bottom: "conv4_3"
  top: "conv4_3"
}
layer {
  name: "pool4"
  type: "Pooling"
  bottom: "conv4_3"
  top: "pool4"
  pooling_param {
    pool: MAX
    kernel_size: 2
    stride: 2
  }
}
layer {
  name: "conv5_1"
  type: "Convolution"
  bottom: "pool4"
  top: "conv5_1"
  param {
    lr_mult: 1
    decay_mult: 1
  }
  param {
    lr_mult: 2
    decay_mult: 0
  }
  convolution_param {
    num_output: 512
    pad: 1
    kernel_size: 3
    stride: 1
  }
}
layer {
  name: "relu5_1"
  type: "ReLU"
  bottom: "conv5_1"
  top: "conv5_1"
}
layer {
  name: "conv5_2"
  type: "Convolution"
  bottom: "conv5_1"
  top: "conv5_2"
  param {
    lr_mult: 1
    decay_mult: 1
  }
  param {
    lr_mult: 2
    decay_mult: 0
  }
  convolution_param {
    num_output: 512
    pad: 1
    kernel_size: 3
    stride: 1
  }
}
layer {
  name: "relu5_2"
  type: "ReLU"
  bottom: "conv5_2"
  top: "conv5_2"
}
layer {
  name: "conv5_3"
  type: "Convolution"
  bottom: "conv5_2"
  top: "conv5_3"
  param {
    lr_mult: 1
    decay_mult: 1
  }
  param {
    lr_mult: 2
    decay_mult: 0
  }
  convolution_param {
    num_output: 512
    pad: 1
    kernel_size: 3
    stride: 1
  }
}
layer {
  name: "relu5_3"
  type: "ReLU"
  bottom: "conv5_3"
  top: "conv5_3"
}
layer {
  name: "pool5"
  type: "Pooling"
  bottom: "conv5_3"
  top: "pool5"
  pooling_param {
    pool: MAX
    kernel_size: 2
    stride: 2
  }
}
layer {
  name: "fc6"
  type: "Convolution"
  bottom: "pool5"
  top: "fc6"
  param {
    lr_mult: 1
    decay_mult: 1
  }
  param {
    lr_mult: 2
    decay_mult: 0
  }
  convolution_param {
    num_output: 4096
    pad: 0
    kernel_size: 7
    stride: 1
  }
}
layer {
  name: "relu6"
  type: "ReLU"
  bottom: "fc6"
  top: "fc6"
}
layer {
  name: "drop6"
  type: "Dropout"
  bottom: "fc6"
  top: "fc6"
  dropout_param {
    dropout_ratio: 0.5
  }
}
layer {
  name: "fc7"
  type: "Convolution"
  bottom: "fc6"
  top: "fc7"
  param {
    lr_mult: 1
    decay_mult: 1
  }
  param {
    lr_mult: 2
    decay_mult: 0
  }
  convolution_param {
    num_output: 4096
    pad: 0
    kernel_size: 1
    stride: 1
  }
}
layer {
  name: "relu7"
  type: "ReLU"
  bottom: "fc7"
  top: "fc7"
}
layer {
  name: "drop7"
  type: "Dropout"
  bottom: "fc7"
  top: "fc7"
  dropout_param {
    dropout_ratio: 0.5
  }
}
layer {
  name: "score_fr"
  type: "Convolution"
  bottom: "fc7"
  top: "score_fr"
  param {
    lr_mult: 1
    decay_mult: 1
  }
  param {
    lr_mult: 2
    decay_mult: 0
  }
  convolution_param {
    num_output: 2
    pad: 0
    kernel_size: 1
  }
}
layer {
  name: "upscore"
  type: "Deconvolution"
  bottom: "score_fr"
  top: "upscore"
  param {
    lr_mult: 0
  }
  convolution_param {
    num_output: 2
    bias_term: false
    kernel_size: 64
    stride: 32
  }
}
layer {
  name: "score"
  type: "Crop"
  bottom: "upscore"
  bottom: "data"
  top: "score"
  crop_param {
    axis: 2
    offset: 19
  }
}
layer {
  name: "loss"
  type: "SoftmaxWithLoss"
  bottom: "score"
  bottom: "label"
  top: "loss"
  loss_param {
    ignore_label: 255
    normalize: false
  }
}
layer {
  name: "dice"
  type: "Python"
  bottom: "score"
  bottom: "label"
  top: "dice"
  exclude {
    stage: "deploy"
  }
  python_param {
    module: "dice"
    layer: "Dice"
  }
}
I0424 08:08:42.560605  8667 layer_factory.hpp:77] Creating layer data
I0424 08:08:42.560859  8667 net.cpp:100] Creating Layer data
I0424 08:08:42.560870  8667 net.cpp:408] data -> data
I0424 08:08:42.560883  8667 net.cpp:408] data -> label
I0424 08:08:43.355420  8667 net.cpp:150] Setting up data
I0424 08:08:43.355460  8667 net.cpp:157] Top shape: 1 3 100 100 (30000)
I0424 08:08:43.355466  8667 net.cpp:157] Top shape: 1 1 100 100 (10000)
I0424 08:08:43.355470  8667 net.cpp:165] Memory required for data: 160000
I0424 08:08:43.355476  8667 layer_factory.hpp:77] Creating layer data_data_0_split
I0424 08:08:43.355500  8667 net.cpp:100] Creating Layer data_data_0_split
I0424 08:08:43.355507  8667 net.cpp:434] data_data_0_split <- data
I0424 08:08:43.355516  8667 net.cpp:408] data_data_0_split -> data_data_0_split_0
I0424 08:08:43.355527  8667 net.cpp:408] data_data_0_split -> data_data_0_split_1
I0424 08:08:43.355552  8667 net.cpp:150] Setting up data_data_0_split
I0424 08:08:43.355558  8667 net.cpp:157] Top shape: 1 3 100 100 (30000)
I0424 08:08:43.355562  8667 net.cpp:157] Top shape: 1 3 100 100 (30000)
I0424 08:08:43.355566  8667 net.cpp:165] Memory required for data: 400000
I0424 08:08:43.355569  8667 layer_factory.hpp:77] Creating layer label_data_1_split
I0424 08:08:43.355576  8667 net.cpp:100] Creating Layer label_data_1_split
I0424 08:08:43.355578  8667 net.cpp:434] label_data_1_split <- label
I0424 08:08:43.355583  8667 net.cpp:408] label_data_1_split -> label_data_1_split_0
I0424 08:08:43.355588  8667 net.cpp:408] label_data_1_split -> label_data_1_split_1
I0424 08:08:43.355607  8667 net.cpp:150] Setting up label_data_1_split
I0424 08:08:43.355612  8667 net.cpp:157] Top shape: 1 1 100 100 (10000)
I0424 08:08:43.355617  8667 net.cpp:157] Top shape: 1 1 100 100 (10000)
I0424 08:08:43.355620  8667 net.cpp:165] Memory required for data: 480000
I0424 08:08:43.355623  8667 layer_factory.hpp:77] Creating layer conv1_1
I0424 08:08:43.355634  8667 net.cpp:100] Creating Layer conv1_1
I0424 08:08:43.355638  8667 net.cpp:434] conv1_1 <- data_data_0_split_0
I0424 08:08:43.355643  8667 net.cpp:408] conv1_1 -> conv1_1
I0424 08:08:44.001577  8667 net.cpp:150] Setting up conv1_1
I0424 08:08:44.001608  8667 net.cpp:157] Top shape: 1 64 298 298 (5683456)
I0424 08:08:44.001613  8667 net.cpp:165] Memory required for data: 23213824
I0424 08:08:44.001631  8667 layer_factory.hpp:77] Creating layer relu1_1
I0424 08:08:44.001642  8667 net.cpp:100] Creating Layer relu1_1
I0424 08:08:44.001647  8667 net.cpp:434] relu1_1 <- conv1_1
I0424 08:08:44.001653  8667 net.cpp:395] relu1_1 -> conv1_1 (in-place)
I0424 08:08:44.001865  8667 net.cpp:150] Setting up relu1_1
I0424 08:08:44.001875  8667 net.cpp:157] Top shape: 1 64 298 298 (5683456)
I0424 08:08:44.001879  8667 net.cpp:165] Memory required for data: 45947648
I0424 08:08:44.001883  8667 layer_factory.hpp:77] Creating layer conv1_2
I0424 08:08:44.001893  8667 net.cpp:100] Creating Layer conv1_2
I0424 08:08:44.001896  8667 net.cpp:434] conv1_2 <- conv1_1
I0424 08:08:44.001902  8667 net.cpp:408] conv1_2 -> conv1_2
I0424 08:08:44.002969  8667 net.cpp:150] Setting up conv1_2
I0424 08:08:44.002980  8667 net.cpp:157] Top shape: 1 64 298 298 (5683456)
I0424 08:08:44.002985  8667 net.cpp:165] Memory required for data: 68681472
I0424 08:08:44.002992  8667 layer_factory.hpp:77] Creating layer relu1_2
I0424 08:08:44.002997  8667 net.cpp:100] Creating Layer relu1_2
I0424 08:08:44.003001  8667 net.cpp:434] relu1_2 <- conv1_2
I0424 08:08:44.003006  8667 net.cpp:395] relu1_2 -> conv1_2 (in-place)
I0424 08:08:44.003121  8667 net.cpp:150] Setting up relu1_2
I0424 08:08:44.003129  8667 net.cpp:157] Top shape: 1 64 298 298 (5683456)
I0424 08:08:44.003132  8667 net.cpp:165] Memory required for data: 91415296
I0424 08:08:44.003135  8667 layer_factory.hpp:77] Creating layer pool1
I0424 08:08:44.003141  8667 net.cpp:100] Creating Layer pool1
I0424 08:08:44.003145  8667 net.cpp:434] pool1 <- conv1_2
I0424 08:08:44.003150  8667 net.cpp:408] pool1 -> pool1
I0424 08:08:44.003188  8667 net.cpp:150] Setting up pool1
I0424 08:08:44.003196  8667 net.cpp:157] Top shape: 1 64 149 149 (1420864)
I0424 08:08:44.003198  8667 net.cpp:165] Memory required for data: 97098752
I0424 08:08:44.003202  8667 layer_factory.hpp:77] Creating layer conv2_1
I0424 08:08:44.003209  8667 net.cpp:100] Creating Layer conv2_1
I0424 08:08:44.003213  8667 net.cpp:434] conv2_1 <- pool1
I0424 08:08:44.003218  8667 net.cpp:408] conv2_1 -> conv2_1
I0424 08:08:44.004011  8667 net.cpp:150] Setting up conv2_1
I0424 08:08:44.004022  8667 net.cpp:157] Top shape: 1 128 149 149 (2841728)
I0424 08:08:44.004027  8667 net.cpp:165] Memory required for data: 108465664
I0424 08:08:44.004034  8667 layer_factory.hpp:77] Creating layer relu2_1
I0424 08:08:44.004040  8667 net.cpp:100] Creating Layer relu2_1
I0424 08:08:44.004045  8667 net.cpp:434] relu2_1 <- conv2_1
I0424 08:08:44.004050  8667 net.cpp:395] relu2_1 -> conv2_1 (in-place)
I0424 08:08:44.004164  8667 net.cpp:150] Setting up relu2_1
I0424 08:08:44.004173  8667 net.cpp:157] Top shape: 1 128 149 149 (2841728)
I0424 08:08:44.004175  8667 net.cpp:165] Memory required for data: 119832576
I0424 08:08:44.004179  8667 layer_factory.hpp:77] Creating layer conv2_2
I0424 08:08:44.004185  8667 net.cpp:100] Creating Layer conv2_2
I0424 08:08:44.004189  8667 net.cpp:434] conv2_2 <- conv2_1
I0424 08:08:44.004194  8667 net.cpp:408] conv2_2 -> conv2_2
I0424 08:08:44.005270  8667 net.cpp:150] Setting up conv2_2
I0424 08:08:44.005281  8667 net.cpp:157] Top shape: 1 128 149 149 (2841728)
I0424 08:08:44.005285  8667 net.cpp:165] Memory required for data: 131199488
I0424 08:08:44.005291  8667 layer_factory.hpp:77] Creating layer relu2_2
I0424 08:08:44.005297  8667 net.cpp:100] Creating Layer relu2_2
I0424 08:08:44.005301  8667 net.cpp:434] relu2_2 <- conv2_2
I0424 08:08:44.005306  8667 net.cpp:395] relu2_2 -> conv2_2 (in-place)
I0424 08:08:44.005506  8667 net.cpp:150] Setting up relu2_2
I0424 08:08:44.005515  8667 net.cpp:157] Top shape: 1 128 149 149 (2841728)
I0424 08:08:44.005519  8667 net.cpp:165] Memory required for data: 142566400
I0424 08:08:44.005523  8667 layer_factory.hpp:77] Creating layer pool2
I0424 08:08:44.005529  8667 net.cpp:100] Creating Layer pool2
I0424 08:08:44.005532  8667 net.cpp:434] pool2 <- conv2_2
I0424 08:08:44.005537  8667 net.cpp:408] pool2 -> pool2
I0424 08:08:44.005568  8667 net.cpp:150] Setting up pool2
I0424 08:08:44.005573  8667 net.cpp:157] Top shape: 1 128 75 75 (720000)
I0424 08:08:44.005575  8667 net.cpp:165] Memory required for data: 145446400
I0424 08:08:44.005579  8667 layer_factory.hpp:77] Creating layer conv3_1
I0424 08:08:44.005585  8667 net.cpp:100] Creating Layer conv3_1
I0424 08:08:44.005589  8667 net.cpp:434] conv3_1 <- pool2
I0424 08:08:44.005594  8667 net.cpp:408] conv3_1 -> conv3_1
I0424 08:08:44.007020  8667 net.cpp:150] Setting up conv3_1
I0424 08:08:44.007031  8667 net.cpp:157] Top shape: 1 256 75 75 (1440000)
I0424 08:08:44.007036  8667 net.cpp:165] Memory required for data: 151206400
I0424 08:08:44.007045  8667 layer_factory.hpp:77] Creating layer relu3_1
I0424 08:08:44.007053  8667 net.cpp:100] Creating Layer relu3_1
I0424 08:08:44.007058  8667 net.cpp:434] relu3_1 <- conv3_1
I0424 08:08:44.007066  8667 net.cpp:395] relu3_1 -> conv3_1 (in-place)
I0424 08:08:44.007232  8667 net.cpp:150] Setting up relu3_1
I0424 08:08:44.007241  8667 net.cpp:157] Top shape: 1 256 75 75 (1440000)
I0424 08:08:44.007244  8667 net.cpp:165] Memory required for data: 156966400
I0424 08:08:44.007248  8667 layer_factory.hpp:77] Creating layer conv3_2
I0424 08:08:44.007256  8667 net.cpp:100] Creating Layer conv3_2
I0424 08:08:44.007261  8667 net.cpp:434] conv3_2 <- conv3_1
I0424 08:08:44.007266  8667 net.cpp:408] conv3_2 -> conv3_2
I0424 08:08:44.008882  8667 net.cpp:150] Setting up conv3_2
I0424 08:08:44.008893  8667 net.cpp:157] Top shape: 1 256 75 75 (1440000)
I0424 08:08:44.008898  8667 net.cpp:165] Memory required for data: 162726400
I0424 08:08:44.008904  8667 layer_factory.hpp:77] Creating layer relu3_2
I0424 08:08:44.008911  8667 net.cpp:100] Creating Layer relu3_2
I0424 08:08:44.008921  8667 net.cpp:434] relu3_2 <- conv3_2
I0424 08:08:44.008927  8667 net.cpp:395] relu3_2 -> conv3_2 (in-place)
I0424 08:08:44.009050  8667 net.cpp:150] Setting up relu3_2
I0424 08:08:44.009058  8667 net.cpp:157] Top shape: 1 256 75 75 (1440000)
I0424 08:08:44.009063  8667 net.cpp:165] Memory required for data: 168486400
I0424 08:08:44.009066  8667 layer_factory.hpp:77] Creating layer conv3_3
I0424 08:08:44.009073  8667 net.cpp:100] Creating Layer conv3_3
I0424 08:08:44.009078  8667 net.cpp:434] conv3_3 <- conv3_2
I0424 08:08:44.009083  8667 net.cpp:408] conv3_3 -> conv3_3
I0424 08:08:44.010653  8667 net.cpp:150] Setting up conv3_3
I0424 08:08:44.010668  8667 net.cpp:157] Top shape: 1 256 75 75 (1440000)
I0424 08:08:44.010671  8667 net.cpp:165] Memory required for data: 174246400
I0424 08:08:44.010677  8667 layer_factory.hpp:77] Creating layer relu3_3
I0424 08:08:44.010684  8667 net.cpp:100] Creating Layer relu3_3
I0424 08:08:44.010689  8667 net.cpp:434] relu3_3 <- conv3_3
I0424 08:08:44.010694  8667 net.cpp:395] relu3_3 -> conv3_3 (in-place)
I0424 08:08:44.010905  8667 net.cpp:150] Setting up relu3_3
I0424 08:08:44.010913  8667 net.cpp:157] Top shape: 1 256 75 75 (1440000)
I0424 08:08:44.010917  8667 net.cpp:165] Memory required for data: 180006400
I0424 08:08:44.010921  8667 layer_factory.hpp:77] Creating layer pool3
I0424 08:08:44.010927  8667 net.cpp:100] Creating Layer pool3
I0424 08:08:44.010931  8667 net.cpp:434] pool3 <- conv3_3
I0424 08:08:44.010937  8667 net.cpp:408] pool3 -> pool3
I0424 08:08:44.010968  8667 net.cpp:150] Setting up pool3
I0424 08:08:44.010974  8667 net.cpp:157] Top shape: 1 256 38 38 (369664)
I0424 08:08:44.010978  8667 net.cpp:165] Memory required for data: 181485056
I0424 08:08:44.010982  8667 layer_factory.hpp:77] Creating layer conv4_1
I0424 08:08:44.010988  8667 net.cpp:100] Creating Layer conv4_1
I0424 08:08:44.010993  8667 net.cpp:434] conv4_1 <- pool3
I0424 08:08:44.010998  8667 net.cpp:408] conv4_1 -> conv4_1
I0424 08:08:44.013875  8667 net.cpp:150] Setting up conv4_1
I0424 08:08:44.013907  8667 net.cpp:157] Top shape: 1 512 38 38 (739328)
I0424 08:08:44.013912  8667 net.cpp:165] Memory required for data: 184442368
I0424 08:08:44.013922  8667 layer_factory.hpp:77] Creating layer relu4_1
I0424 08:08:44.013932  8667 net.cpp:100] Creating Layer relu4_1
I0424 08:08:44.013937  8667 net.cpp:434] relu4_1 <- conv4_1
I0424 08:08:44.013945  8667 net.cpp:395] relu4_1 -> conv4_1 (in-place)
I0424 08:08:44.014183  8667 net.cpp:150] Setting up relu4_1
I0424 08:08:44.014201  8667 net.cpp:157] Top shape: 1 512 38 38 (739328)
I0424 08:08:44.014205  8667 net.cpp:165] Memory required for data: 187399680
I0424 08:08:44.014209  8667 layer_factory.hpp:77] Creating layer conv4_2
I0424 08:08:44.014217  8667 net.cpp:100] Creating Layer conv4_2
I0424 08:08:44.014221  8667 net.cpp:434] conv4_2 <- conv4_1
I0424 08:08:44.014227  8667 net.cpp:408] conv4_2 -> conv4_2
I0424 08:08:44.020021  8667 net.cpp:150] Setting up conv4_2
I0424 08:08:44.020053  8667 net.cpp:157] Top shape: 1 512 38 38 (739328)
I0424 08:08:44.020057  8667 net.cpp:165] Memory required for data: 190356992
I0424 08:08:44.020071  8667 layer_factory.hpp:77] Creating layer relu4_2
I0424 08:08:44.020081  8667 net.cpp:100] Creating Layer relu4_2
I0424 08:08:44.020086  8667 net.cpp:434] relu4_2 <- conv4_2
I0424 08:08:44.020092  8667 net.cpp:395] relu4_2 -> conv4_2 (in-place)
I0424 08:08:44.020223  8667 net.cpp:150] Setting up relu4_2
I0424 08:08:44.020231  8667 net.cpp:157] Top shape: 1 512 38 38 (739328)
I0424 08:08:44.020234  8667 net.cpp:165] Memory required for data: 193314304
I0424 08:08:44.020238  8667 layer_factory.hpp:77] Creating layer conv4_3
I0424 08:08:44.020247  8667 net.cpp:100] Creating Layer conv4_3
I0424 08:08:44.020251  8667 net.cpp:434] conv4_3 <- conv4_2
I0424 08:08:44.020256  8667 net.cpp:408] conv4_3 -> conv4_3
I0424 08:08:44.025403  8667 net.cpp:150] Setting up conv4_3
I0424 08:08:44.025435  8667 net.cpp:157] Top shape: 1 512 38 38 (739328)
I0424 08:08:44.025440  8667 net.cpp:165] Memory required for data: 196271616
I0424 08:08:44.025459  8667 layer_factory.hpp:77] Creating layer relu4_3
I0424 08:08:44.025468  8667 net.cpp:100] Creating Layer relu4_3
I0424 08:08:44.025473  8667 net.cpp:434] relu4_3 <- conv4_3
I0424 08:08:44.025480  8667 net.cpp:395] relu4_3 -> conv4_3 (in-place)
I0424 08:08:44.025701  8667 net.cpp:150] Setting up relu4_3
I0424 08:08:44.025712  8667 net.cpp:157] Top shape: 1 512 38 38 (739328)
I0424 08:08:44.025714  8667 net.cpp:165] Memory required for data: 199228928
I0424 08:08:44.025718  8667 layer_factory.hpp:77] Creating layer pool4
I0424 08:08:44.025725  8667 net.cpp:100] Creating Layer pool4
I0424 08:08:44.025729  8667 net.cpp:434] pool4 <- conv4_3
I0424 08:08:44.025735  8667 net.cpp:408] pool4 -> pool4
I0424 08:08:44.025768  8667 net.cpp:150] Setting up pool4
I0424 08:08:44.025774  8667 net.cpp:157] Top shape: 1 512 19 19 (184832)
I0424 08:08:44.025777  8667 net.cpp:165] Memory required for data: 199968256
I0424 08:08:44.025780  8667 layer_factory.hpp:77] Creating layer conv5_1
I0424 08:08:44.025789  8667 net.cpp:100] Creating Layer conv5_1
I0424 08:08:44.025792  8667 net.cpp:434] conv5_1 <- pool4
I0424 08:08:44.025799  8667 net.cpp:408] conv5_1 -> conv5_1
I0424 08:08:44.030604  8667 net.cpp:150] Setting up conv5_1
I0424 08:08:44.030633  8667 net.cpp:157] Top shape: 1 512 19 19 (184832)
I0424 08:08:44.030638  8667 net.cpp:165] Memory required for data: 200707584
I0424 08:08:44.030647  8667 layer_factory.hpp:77] Creating layer relu5_1
I0424 08:08:44.030656  8667 net.cpp:100] Creating Layer relu5_1
I0424 08:08:44.030663  8667 net.cpp:434] relu5_1 <- conv5_1
I0424 08:08:44.030669  8667 net.cpp:395] relu5_1 -> conv5_1 (in-place)
I0424 08:08:44.030802  8667 net.cpp:150] Setting up relu5_1
I0424 08:08:44.030810  8667 net.cpp:157] Top shape: 1 512 19 19 (184832)
I0424 08:08:44.030814  8667 net.cpp:165] Memory required for data: 201446912
I0424 08:08:44.030817  8667 layer_factory.hpp:77] Creating layer conv5_2
I0424 08:08:44.030827  8667 net.cpp:100] Creating Layer conv5_2
I0424 08:08:44.030830  8667 net.cpp:434] conv5_2 <- conv5_1
I0424 08:08:44.030835  8667 net.cpp:408] conv5_2 -> conv5_2
I0424 08:08:44.036345  8667 net.cpp:150] Setting up conv5_2
I0424 08:08:44.036377  8667 net.cpp:157] Top shape: 1 512 19 19 (184832)
I0424 08:08:44.036381  8667 net.cpp:165] Memory required for data: 202186240
I0424 08:08:44.036391  8667 layer_factory.hpp:77] Creating layer relu5_2
I0424 08:08:44.036401  8667 net.cpp:100] Creating Layer relu5_2
I0424 08:08:44.036406  8667 net.cpp:434] relu5_2 <- conv5_2
I0424 08:08:44.036413  8667 net.cpp:395] relu5_2 -> conv5_2 (in-place)
I0424 08:08:44.036540  8667 net.cpp:150] Setting up relu5_2
I0424 08:08:44.036548  8667 net.cpp:157] Top shape: 1 512 19 19 (184832)
I0424 08:08:44.036551  8667 net.cpp:165] Memory required for data: 202925568
I0424 08:08:44.036556  8667 layer_factory.hpp:77] Creating layer conv5_3
I0424 08:08:44.036564  8667 net.cpp:100] Creating Layer conv5_3
I0424 08:08:44.036568  8667 net.cpp:434] conv5_3 <- conv5_2
I0424 08:08:44.036573  8667 net.cpp:408] conv5_3 -> conv5_3
I0424 08:08:44.042151  8667 net.cpp:150] Setting up conv5_3
I0424 08:08:44.042182  8667 net.cpp:157] Top shape: 1 512 19 19 (184832)
I0424 08:08:44.042187  8667 net.cpp:165] Memory required for data: 203664896
I0424 08:08:44.042196  8667 layer_factory.hpp:77] Creating layer relu5_3
I0424 08:08:44.042208  8667 net.cpp:100] Creating Layer relu5_3
I0424 08:08:44.042213  8667 net.cpp:434] relu5_3 <- conv5_3
I0424 08:08:44.042220  8667 net.cpp:395] relu5_3 -> conv5_3 (in-place)
I0424 08:08:44.042436  8667 net.cpp:150] Setting up relu5_3
I0424 08:08:44.042446  8667 net.cpp:157] Top shape: 1 512 19 19 (184832)
I0424 08:08:44.042450  8667 net.cpp:165] Memory required for data: 204404224
I0424 08:08:44.042454  8667 layer_factory.hpp:77] Creating layer pool5
I0424 08:08:44.042460  8667 net.cpp:100] Creating Layer pool5
I0424 08:08:44.042464  8667 net.cpp:434] pool5 <- conv5_3
I0424 08:08:44.042469  8667 net.cpp:408] pool5 -> pool5
I0424 08:08:44.042503  8667 net.cpp:150] Setting up pool5
I0424 08:08:44.042516  8667 net.cpp:157] Top shape: 1 512 10 10 (51200)
I0424 08:08:44.042520  8667 net.cpp:165] Memory required for data: 204609024
I0424 08:08:44.042523  8667 layer_factory.hpp:77] Creating layer fc6
I0424 08:08:44.042531  8667 net.cpp:100] Creating Layer fc6
I0424 08:08:44.042536  8667 net.cpp:434] fc6 <- pool5
I0424 08:08:44.042541  8667 net.cpp:408] fc6 -> fc6
I0424 08:08:44.262872  8667 net.cpp:150] Setting up fc6
I0424 08:08:44.262915  8667 net.cpp:157] Top shape: 1 4096 4 4 (65536)
I0424 08:08:44.262924  8667 net.cpp:165] Memory required for data: 204871168
I0424 08:08:44.262938  8667 layer_factory.hpp:77] Creating layer relu6
I0424 08:08:44.262953  8667 net.cpp:100] Creating Layer relu6
I0424 08:08:44.262959  8667 net.cpp:434] relu6 <- fc6
I0424 08:08:44.262967  8667 net.cpp:395] relu6 -> fc6 (in-place)
I0424 08:08:44.263270  8667 net.cpp:150] Setting up relu6
I0424 08:08:44.263284  8667 net.cpp:157] Top shape: 1 4096 4 4 (65536)
I0424 08:08:44.263289  8667 net.cpp:165] Memory required for data: 205133312
I0424 08:08:44.263293  8667 layer_factory.hpp:77] Creating layer drop6
I0424 08:08:44.263304  8667 net.cpp:100] Creating Layer drop6
I0424 08:08:44.263309  8667 net.cpp:434] drop6 <- fc6
I0424 08:08:44.263315  8667 net.cpp:395] drop6 -> fc6 (in-place)
I0424 08:08:44.263350  8667 net.cpp:150] Setting up drop6
I0424 08:08:44.263361  8667 net.cpp:157] Top shape: 1 4096 4 4 (65536)
I0424 08:08:44.263366  8667 net.cpp:165] Memory required for data: 205395456
I0424 08:08:44.263372  8667 layer_factory.hpp:77] Creating layer fc7
I0424 08:08:44.263384  8667 net.cpp:100] Creating Layer fc7
I0424 08:08:44.263388  8667 net.cpp:434] fc7 <- fc6
I0424 08:08:44.263394  8667 net.cpp:408] fc7 -> fc7
I0424 08:08:44.299677  8667 net.cpp:150] Setting up fc7
I0424 08:08:44.299718  8667 net.cpp:157] Top shape: 1 4096 4 4 (65536)
I0424 08:08:44.299724  8667 net.cpp:165] Memory required for data: 205657600
I0424 08:08:44.299736  8667 layer_factory.hpp:77] Creating layer relu7
I0424 08:08:44.299748  8667 net.cpp:100] Creating Layer relu7
I0424 08:08:44.299757  8667 net.cpp:434] relu7 <- fc7
I0424 08:08:44.299764  8667 net.cpp:395] relu7 -> fc7 (in-place)
I0424 08:08:44.299891  8667 net.cpp:150] Setting up relu7
I0424 08:08:44.299899  8667 net.cpp:157] Top shape: 1 4096 4 4 (65536)
I0424 08:08:44.299903  8667 net.cpp:165] Memory required for data: 205919744
I0424 08:08:44.299906  8667 layer_factory.hpp:77] Creating layer drop7
I0424 08:08:44.299913  8667 net.cpp:100] Creating Layer drop7
I0424 08:08:44.299917  8667 net.cpp:434] drop7 <- fc7
I0424 08:08:44.299921  8667 net.cpp:395] drop7 -> fc7 (in-place)
I0424 08:08:44.299943  8667 net.cpp:150] Setting up drop7
I0424 08:08:44.299948  8667 net.cpp:157] Top shape: 1 4096 4 4 (65536)
I0424 08:08:44.299952  8667 net.cpp:165] Memory required for data: 206181888
I0424 08:08:44.299955  8667 layer_factory.hpp:77] Creating layer score_fr
I0424 08:08:44.299963  8667 net.cpp:100] Creating Layer score_fr
I0424 08:08:44.299967  8667 net.cpp:434] score_fr <- fc7
I0424 08:08:44.299971  8667 net.cpp:408] score_fr -> score_fr
I0424 08:08:44.300689  8667 net.cpp:150] Setting up score_fr
I0424 08:08:44.300700  8667 net.cpp:157] Top shape: 1 2 4 4 (32)
I0424 08:08:44.300704  8667 net.cpp:165] Memory required for data: 206182016
I0424 08:08:44.300710  8667 layer_factory.hpp:77] Creating layer upscore
I0424 08:08:44.300724  8667 net.cpp:100] Creating Layer upscore
I0424 08:08:44.300729  8667 net.cpp:434] upscore <- score_fr
I0424 08:08:44.300734  8667 net.cpp:408] upscore -> upscore
I0424 08:08:44.300881  8667 net.cpp:150] Setting up upscore
I0424 08:08:44.300889  8667 net.cpp:157] Top shape: 1 2 160 160 (51200)
I0424 08:08:44.300891  8667 net.cpp:165] Memory required for data: 206386816
I0424 08:08:44.300901  8667 layer_factory.hpp:77] Creating layer score
I0424 08:08:44.300909  8667 net.cpp:100] Creating Layer score
I0424 08:08:44.300914  8667 net.cpp:434] score <- upscore
I0424 08:08:44.300917  8667 net.cpp:434] score <- data_data_0_split_1
I0424 08:08:44.300922  8667 net.cpp:408] score -> score
I0424 08:08:44.300956  8667 net.cpp:150] Setting up score
I0424 08:08:44.300961  8667 net.cpp:157] Top shape: 1 2 100 100 (20000)
I0424 08:08:44.300964  8667 net.cpp:165] Memory required for data: 206466816
I0424 08:08:44.300968  8667 layer_factory.hpp:77] Creating layer score_score_0_split
I0424 08:08:44.300973  8667 net.cpp:100] Creating Layer score_score_0_split
I0424 08:08:44.300977  8667 net.cpp:434] score_score_0_split <- score
I0424 08:08:44.300981  8667 net.cpp:408] score_score_0_split -> score_score_0_split_0
I0424 08:08:44.300987  8667 net.cpp:408] score_score_0_split -> score_score_0_split_1
I0424 08:08:44.301012  8667 net.cpp:150] Setting up score_score_0_split
I0424 08:08:44.301017  8667 net.cpp:157] Top shape: 1 2 100 100 (20000)
I0424 08:08:44.301021  8667 net.cpp:157] Top shape: 1 2 100 100 (20000)
I0424 08:08:44.301025  8667 net.cpp:165] Memory required for data: 206626816
I0424 08:08:44.301028  8667 layer_factory.hpp:77] Creating layer loss
I0424 08:08:44.301035  8667 net.cpp:100] Creating Layer loss
I0424 08:08:44.301038  8667 net.cpp:434] loss <- score_score_0_split_0
I0424 08:08:44.301043  8667 net.cpp:434] loss <- label_data_1_split_0
I0424 08:08:44.301048  8667 net.cpp:408] loss -> loss
I0424 08:08:44.301055  8667 layer_factory.hpp:77] Creating layer loss
I0424 08:08:44.301364  8667 net.cpp:150] Setting up loss
I0424 08:08:44.301374  8667 net.cpp:157] Top shape: (1)
I0424 08:08:44.301378  8667 net.cpp:160]     with loss weight 1
I0424 08:08:44.301393  8667 net.cpp:165] Memory required for data: 206626820
I0424 08:08:44.301396  8667 layer_factory.hpp:77] Creating layer dice
I0424 08:08:44.301590  8667 net.cpp:100] Creating Layer dice
I0424 08:08:44.301599  8667 net.cpp:434] dice <- score_score_0_split_1
I0424 08:08:44.301604  8667 net.cpp:434] dice <- label_data_1_split_1
I0424 08:08:44.301609  8667 net.cpp:408] dice -> dice
I0424 08:08:44.301692  8667 net.cpp:150] Setting up dice
I0424 08:08:44.301700  8667 net.cpp:157] Top shape: 1 (1)
I0424 08:08:44.301704  8667 net.cpp:165] Memory required for data: 206626824
I0424 08:08:44.301708  8667 net.cpp:228] dice does not need backward computation.
I0424 08:08:44.301712  8667 net.cpp:226] loss needs backward computation.
I0424 08:08:44.301717  8667 net.cpp:226] score_score_0_split needs backward computation.
I0424 08:08:44.301719  8667 net.cpp:226] score needs backward computation.
…
I0424 08:08:44.601264  8667 upgrade_proto.cpp:67] Attempting to upgrade input file specified using deprecated input fields: /home/zeven/caffe/examples/fcn/ilsvrc-nets/VGG_ILSVRC_16_layers_deploy.prototxt
I0424 08:08:44.601275  8667 upgrade_proto.cpp:70] Successfully upgraded file specified using deprecated input fields.
W0424 08:08:44.601284  8667 upgrade_proto.cpp:72] Note that future Caffe releases will only support input layers and not input fields.
I0424 08:08:44.601527  8667 net.cpp:58] Initializing net from parameters: 
name: "VGG_ILSVRC_16_layers"
state {
  phase: TRAIN
  level: 0
}
layer {
  name: "input"
  type: "Input"
  top: "data"
  input_param {
    shape {
      dim: 10
      dim: 3
      dim: 224
      dim: 224
    }
  }
}
layer {
  name: "conv1_1"
  type: "Convolution"
  bottom: "data"
  top: "conv1_1"
  convolution_param {
    num_output: 64
    pad: 1
    kernel_size: 3
  }
}
layer {
  name: "relu1_1"
  type: "ReLU"
  bottom: "conv1_1"
  top: "conv1_1"
}
layer {
  name: "conv1_2"
  type: "Convolution"
  bottom: "conv1_1"
  top: "conv1_2"
  convolution_param {
    num_output: 64
    pad: 1
    kernel_size: 3
  }
}
layer {
  name: "relu1_2"
  type: "ReLU"
  bottom: "conv1_2"
  top: "conv1_2"
}
layer {
  name: "pool1"
  type: "Pooling"
  bottom: "conv1_2"
  top: "pool1"
  pooling_param {
    pool: MAX
    kernel_size: 2
    stride: 2
  }
}
layer {
  name: "conv2_1"
  type: "Convolution"
  bottom: "pool1"
  top: "conv2_1"
  convolution_param {
    num_output: 128
    pad: 1
    kernel_size: 3
  }
}
layer {
  name: "relu2_1"
  type: "ReLU"
  bottom: "conv2_1"
  top: "conv2_1"
}
layer {
  name: "conv2_2"
  type: "Convolution"
  bottom: "conv2_1"
  top: "conv2_2"
  convolution_param {
    num_output: 128
    pad: 1
    kernel_size: 3
  }
}
layer {
  name: "relu2_2"
  type: "ReLU"
  bottom: "conv2_2"
  top: "conv2_2"
}
layer {
  name: "pool2"
  type: "Pooling"
  bottom: "conv2_2"
  top: "pool2"
  pooling_param {
    pool: MAX
    kernel_size: 2
    stride: 2
  }
}
layer {
  name: "conv3_1"
  type: "Convolution"
  bottom: "pool2"
  top: "conv3_1"
  convolution_param {
    num_output: 256
    pad: 1
    kernel_size: 3
  }
}
layer {
  name: "relu3_1"
  type: "ReLU"
  bottom: "conv3_1"
  top: "conv3_1"
}
layer {
  name: "conv3_2"
  type: "Convolution"
  bottom: "conv3_1"
  top: "conv3_2"
  convolution_param {
    num_output: 256
    pad: 1
    kernel_size: 3
  }
}
layer {
  name: "relu3_2"
  type: "ReLU"
  bottom: "conv3_2"
  top: "conv3_2"
}
layer {
  name: "conv3_3"
  type: "Convolution"
  bottom: "conv3_2"
  top: "conv3_3"
  convolution_param {
    num_output: 256
    pad: 1
    kernel_size: 3
  }
}
layer {
  name: "relu3_3"
  type: "ReLU"
  bottom: "conv3_3"
  top: "conv3_3"
}
layer {
  name: "pool3"
  type: "Pooling"
  bottom: "conv3_3"
  top: "pool3"
  pooling_param {
    pool: MAX
    kernel_size: 2
    stride: 2
  }
}
layer {
  name: "conv4_1"
  type: "Convolution"
  bottom: "pool3"
  top: "conv4_1"
  convolution_param {
    num_output: 512
    pad: 1
    kernel_size: 3
  }
}
layer {
  name: "relu4_1"
  type: "ReLU"
  bottom: "conv4_1"
  top: "conv4_1"
}
layer {
  name: "conv4_2"
  type: "Convolution"
  bottom: "conv4_1"
  top: "conv4_2"
  convolution_param {
    num_output: 512
    pad: 1
    kernel_size: 3
  }
}
layer {
  name: "relu4_2"
  type: "ReLU"
  bottom: "conv4_2"
  top: "conv4_2"
}
layer {
  name: "conv4_3"
  type: "Convolution"
  bottom: "conv4_2"
  top: "conv4_3"
  convolution_param {
    num_output: 512
    pad: 1
    kernel_size: 3
  }
}
layer {
  name: "relu4_3"
  type: "ReLU"
  bottom: "conv4_3"
  top: "conv4_3"
}
layer {
  name: "pool4"
  type: "Pooling"
  bottom: "conv4_3"
  top: "pool4"
  pooling_param {
    pool: MAX
    kernel_size: 2
    stride: 2
  }
}
layer {
  name: "conv5_1"
  type: "Convolution"
  bottom: "pool4"
  top: "conv5_1"
  convolution_param {
    num_output: 512
    pad: 1
    kernel_size: 3
  }
}
layer {
  name: "relu5_1"
  type: "ReLU"
  bottom: "conv5_1"
  top: "conv5_1"
}
layer {
  name: "conv5_2"
  type: "Convolution"
  bottom: "conv5_1"
  top: "conv5_2"
  convolution_param {
    num_output: 512
    pad: 1
    kernel_size: 3
  }
}
layer {
  name: "relu5_2"
  type: "ReLU"
  bottom: "conv5_2"
  top: "conv5_2"
}
layer {
  name: "conv5_3"
  type: "Convolution"
  bottom: "conv5_2"
  top: "conv5_3"
  convolution_param {
    num_output: 512
    pad: 1
    kernel_size: 3
  }
}
layer {
  name: "relu5_3"
  type: "ReLU"
  bottom: "conv5_3"
  top: "conv5_3"
}
layer {
  name: "pool5"
  type: "Pooling"
  bottom: "conv5_3"
  top: "pool5"
  pooling_param {
    pool: MAX
    kernel_size: 2
    stride: 2
  }
}
layer {
  name: "fc6"
  type: "InnerProduct"
  bottom: "pool5"
  top: "fc6"
  inner_product_param {
    num_output: 4096
  }
}
layer {
  name: "relu6"
  type: "ReLU"
  bottom: "fc6"
  top: "fc6"
}
layer {
  name: "drop6"
  type: "Dropout"
  bottom: "fc6"
  top: "fc6"
  dropout_param {
    dropout_ratio: 0.5
  }
}
layer {
  name: "fc7"
  type: "InnerProduct"
  bottom: "fc6"
  top: "fc7"
  inner_product_param {
    num_output: 4096
  }
}
layer {
  name: "relu7"
  type: "ReLU"
  bottom: "fc7"
  top: "fc7"
}
layer {
  name: "drop7"
  type: "Dropout"
  bottom: "fc7"
  top: "fc7"
  dropout_param {
    dropout_ratio: 0.5
  }
}
layer {
  name: "fc8"
  type: "InnerProduct"
  bottom: "fc7"
  top: "fc8"
  inner_product_param {
    num_output: 1000
  }
}
layer {
  name: "prob"
  type: "Softmax"
  bottom: "fc8"
  top: "prob"
}
I0424 08:08:44.601645  8667 layer_factory.hpp:77] Creating layer input
I0424 08:08:44.601656  8667 net.cpp:100] Creating Layer input
I0424 08:08:44.601661  8667 net.cpp:408] input -> data
I0424 08:08:44.601697  8667 net.cpp:150] Setting up input
I0424 08:08:44.601704  8667 net.cpp:157] Top shape: 10 3 224 224 (1505280)
I0424 08:08:44.601708  8667 net.cpp:165] Memory required for data: 6021120
I0424 08:08:44.601712  8667 layer_factory.hpp:77] Creating layer conv1_1
I0424 08:08:44.601719  8667 net.cpp:100] Creating Layer conv1_1
I0424 08:08:44.601723  8667 net.cpp:434] conv1_1 <- data
I0424 08:08:44.601728  8667 net.cpp:408] conv1_1 -> conv1_1
I0424 08:08:44.604158  8667 net.cpp:150] Setting up conv1_1
I0424 08:08:44.604179  8667 net.cpp:157] Top shape: 10 64 224 224 (32112640)
I0424 08:08:44.604187  8667 net.cpp:165] Memory required for data: 134471680
I0424 08:08:44.604199  8667 layer_factory.hpp:77] Creating layer relu1_1
I0424 08:08:44.604209  8667 net.cpp:100] Creating Layer relu1_1
I0424 08:08:44.604215  8667 net.cpp:434] relu1_1 <- conv1_1
I0424 08:08:44.604223  8667 net.cpp:395] relu1_1 -> conv1_1 (in-place)
I0424 08:08:44.604418  8667 net.cpp:150] Setting up relu1_1
I0424 08:08:44.604429  8667 net.cpp:157] Top shape: 10 64 224 224 (32112640)
I0424 08:08:44.604434  8667 net.cpp:165] Memory required for data: 262922240
I0424 08:08:44.604440  8667 layer_factory.hpp:77] Creating layer conv1_2
I0424 08:08:44.604451  8667 net.cpp:100] Creating Layer conv1_2
I0424 08:08:44.604456  8667 net.cpp:434] conv1_2 <- conv1_1
I0424 08:08:44.604465  8667 net.cpp:408] conv1_2 -> conv1_2
I0424 08:08:44.606025  8667 net.cpp:150] Setting up conv1_2
I0424 08:08:44.606048  8667 net.cpp:157] Top shape: 10 64 224 224 (32112640)
I0424 08:08:44.606053  8667 net.cpp:165] Memory required for data: 391372800
I0424 08:08:44.606061  8667 layer_factory.hpp:77] Creating layer relu1_2
I0424 08:08:44.606071  8667 net.cpp:100] Creating Layer relu1_2
I0424 08:08:44.606076  8667 net.cpp:434] relu1_2 <- conv1_2
I0424 08:08:44.606081  8667 net.cpp:395] relu1_2 -> conv1_2 (in-place)
I0424 08:08:44.606412  8667 net.cpp:150] Setting up relu1_2
I0424 08:08:44.606426  8667 net.cpp:157] Top shape: 10 64 224 224 (32112640)
I0424 08:08:44.606432  8667 net.cpp:165] Memory required for data: 519823360
I0424 08:08:44.606437  8667 layer_factory.hpp:77] Creating layer pool1
I0424 08:08:44.606446  8667 net.cpp:100] Creating Layer pool1
I0424 08:08:44.606452  8667 net.cpp:434] pool1 <- conv1_2
I0424 08:08:44.606458  8667 net.cpp:408] pool1 -> pool1
I0424 08:08:44.606514  8667 net.cpp:150] Setting up pool1
I0424 08:08:44.606524  8667 net.cpp:157] Top shape: 10 64 112 112 (8028160)
I0424 08:08:44.606529  8667 net.cpp:165] Memory required for data: 551936000
I0424 08:08:44.606534  8667 layer_factory.hpp:77] Creating layer conv2_1
I0424 08:08:44.606545  8667 net.cpp:100] Creating Layer conv2_1
I0424 08:08:44.606551  8667 net.cpp:434] conv2_1 <- pool1
I0424 08:08:44.606565  8667 net.cpp:408] conv2_1 -> conv2_1
I0424 08:08:44.608428  8667 net.cpp:150] Setting up conv2_1
I0424 08:08:44.608443  8667 net.cpp:157] Top shape: 10 128 112 112 (16056320)
I0424 08:08:44.608449  8667 net.cpp:165] Memory required for data: 616161280
I0424 08:08:44.608463  8667 layer_factory.hpp:77] Creating layer relu2_1
I0424 08:08:44.608471  8667 net.cpp:100] Creating Layer relu2_1
I0424 08:08:44.608476  8667 net.cpp:434] relu2_1 <- conv2_1
I0424 08:08:44.608482  8667 net.cpp:395] relu2_1 -> conv2_1 (in-place)
I0424 08:08:44.608685  8667 net.cpp:150] Setting up relu2_1
I0424 08:08:44.608695  8667 net.cpp:157] Top shape: 10 128 112 112 (16056320)
I0424 08:08:44.608697  8667 net.cpp:165] Memory required for data: 680386560
I0424 08:08:44.608701  8667 layer_factory.hpp:77] Creating layer conv2_2
I0424 08:08:44.608711  8667 net.cpp:100] Creating Layer conv2_2
I0424 08:08:44.608714  8667 net.cpp:434] conv2_2 <- conv2_1
I0424 08:08:44.608719  8667 net.cpp:408] conv2_2 -> conv2_2
I0424 08:08:44.610893  8667 net.cpp:150] Setting up conv2_2
I0424 08:08:44.610914  8667 net.cpp:157] Top shape: 10 128 112 112 (16056320)
I0424 08:08:44.610922  8667 net.cpp:165] Memory required for data: 744611840
I0424 08:08:44.610932  8667 layer_factory.hpp:77] Creating layer relu2_2
I0424 08:08:44.610945  8667 net.cpp:100] Creating Layer relu2_2
I0424 08:08:44.610954  8667 net.cpp:434] relu2_2 <- conv2_2
I0424 08:08:44.610962  8667 net.cpp:395] relu2_2 -> conv2_2 (in-place)
I0424 08:08:44.611172  8667 net.cpp:150] Setting up relu2_2
I0424 08:08:44.611186  8667 net.cpp:157] Top shape: 10 128 112 112 (16056320)
I0424 08:08:44.611191  8667 net.cpp:165] Memory required for data: 808837120
I0424 08:08:44.611196  8667 layer_factory.hpp:77] Creating layer pool2
I0424 08:08:44.611207  8667 net.cpp:100] Creating Layer pool2
I0424 08:08:44.611212  8667 net.cpp:434] pool2 <- conv2_2
I0424 08:08:44.611222  8667 net.cpp:408] pool2 -> pool2
I0424 08:08:44.611281  8667 net.cpp:150] Setting up pool2
I0424 08:08:44.611292  8667 net.cpp:157] Top shape: 10 128 56 56 (4014080)
I0424 08:08:44.611297  8667 net.cpp:165] Memory required for data: 824893440
I0424 08:08:44.611304  8667 layer_factory.hpp:77] Creating layer conv3_1
I0424 08:08:44.611315  8667 net.cpp:100] Creating Layer conv3_1
I0424 08:08:44.611320  8667 net.cpp:434] conv3_1 <- pool2
I0424 08:08:44.611327  8667 net.cpp:408] conv3_1 -> conv3_1
I0424 08:08:44.614096  8667 net.cpp:150] Setting up conv3_1
I0424 08:08:44.614116  8667 net.cpp:157] Top shape: 10 256 56 56 (8028160)
I0424 08:08:44.614125  8667 net.cpp:165] Memory required for data: 857006080
I0424 08:08:44.614141  8667 layer_factory.hpp:77] Creating layer relu3_1
I0424 08:08:44.614152  8667 net.cpp:100] Creating Layer relu3_1
I0424 08:08:44.614159  8667 net.cpp:434] relu3_1 <- conv3_1
I0424 08:08:44.614167  8667 net.cpp:395] relu3_1 -> conv3_1 (in-place)
I0424 08:08:44.614511  8667 net.cpp:150] Setting up relu3_1
I0424 08:08:44.614524  8667 net.cpp:157] Top shape: 10 256 56 56 (8028160)
I0424 08:08:44.614529  8667 net.cpp:165] Memory required for data: 889118720
I0424 08:08:44.614536  8667 layer_factory.hpp:77] Creating layer conv3_2
I0424 08:08:44.614547  8667 net.cpp:100] Creating Layer conv3_2
I0424 08:08:44.614553  8667 net.cpp:434] conv3_2 <- conv3_1
I0424 08:08:44.614563  8667 net.cpp:408] conv3_2 -> conv3_2
I0424 08:08:44.617558  8667 net.cpp:150] Setting up conv3_2
I0424 08:08:44.617583  8667 net.cpp:157] Top shape: 10 256 56 56 (8028160)
I0424 08:08:44.617590  8667 net.cpp:165] Memory required for data: 921231360
I0424 08:08:44.617600  8667 layer_factory.hpp:77] Creating layer relu3_2
I0424 08:08:44.617612  8667 net.cpp:100] Creating Layer relu3_2
I0424 08:08:44.617619  8667 net.cpp:434] relu3_2 <- conv3_2
I0424 08:08:44.617626  8667 net.cpp:395] relu3_2 -> conv3_2 (in-place)
I0424 08:08:44.617833  8667 net.cpp:150] Setting up relu3_2
I0424 08:08:44.617844  8667 net.cpp:157] Top shape: 10 256 56 56 (8028160)
I0424 08:08:44.617849  8667 net.cpp:165] Memory required for data: 953344000
I0424 08:08:44.617856  8667 layer_factory.hpp:77] Creating layer conv3_3
I0424 08:08:44.617877  8667 net.cpp:100] Creating Layer conv3_3
I0424 08:08:44.617883  8667 net.cpp:434] conv3_3 <- conv3_2
I0424 08:08:44.617892  8667 net.cpp:408] conv3_3 -> conv3_3
I0424 08:08:44.620671  8667 net.cpp:150] Setting up conv3_3
I0424 08:08:44.620687  8667 net.cpp:157] Top shape: 10 256 56 56 (8028160)
I0424 08:08:44.620690  8667 net.cpp:165] Memory required for data: 985456640
I0424 08:08:44.620697  8667 layer_factory.hpp:77] Creating layer relu3_3
I0424 08:08:44.620707  8667 net.cpp:100] Creating Layer relu3_3
I0424 08:08:44.620710  8667 net.cpp:434] relu3_3 <- conv3_3
I0424 08:08:44.620717  8667 net.cpp:395] relu3_3 -> conv3_3 (in-place)
I0424 08:08:44.620895  8667 net.cpp:150] Setting up relu3_3
I0424 08:08:44.620918  8667 net.cpp:157] Top shape: 10 256 56 56 (8028160)
I0424 08:08:44.620934  8667 net.cpp:165] Memory required for data: 1017569280
I0424 08:08:44.620939  8667 layer_factory.hpp:77] Creating layer pool3
I0424 08:08:44.620949  8667 net.cpp:100] Creating Layer pool3
I0424 08:08:44.620955  8667 net.cpp:434] pool3 <- conv3_3
I0424 08:08:44.620973  8667 net.cpp:408] pool3 -> pool3
I0424 08:08:44.621029  8667 net.cpp:150] Setting up pool3
I0424 08:08:44.621040  8667 net.cpp:157] Top shape: 10 256 28 28 (2007040)
I0424 08:08:44.621045  8667 net.cpp:165] Memory required for data: 1025597440
I0424 08:08:44.621050  8667 layer_factory.hpp:77] Creating layer conv4_1
I0424 08:08:44.621062  8667 net.cpp:100] Creating Layer conv4_1
I0424 08:08:44.621068  8667 net.cpp:434] conv4_1 <- pool3
I0424 08:08:44.621074  8667 net.cpp:408] conv4_1 -> conv4_1
I0424 08:08:44.624974  8667 net.cpp:150] Setting up conv4_1
I0424 08:08:44.625000  8667 net.cpp:157] Top shape: 10 512 28 28 (4014080)
I0424 08:08:44.625003  8667 net.cpp:165] Memory required for data: 1041653760
I0424 08:08:44.625012  8667 layer_factory.hpp:77] Creating layer relu4_1
I0424 08:08:44.625021  8667 net.cpp:100] Creating Layer relu4_1
I0424 08:08:44.625028  8667 net.cpp:434] relu4_1 <- conv4_1
I0424 08:08:44.625039  8667 net.cpp:395] relu4_1 -> conv4_1 (in-place)
I0424 08:08:44.625437  8667 net.cpp:150] Setting up relu4_1
I0424 08:08:44.625448  8667 net.cpp:157] Top shape: 10 512 28 28 (4014080)
I0424 08:08:44.625454  8667 net.cpp:165] Memory required for data: 1057710080
I0424 08:08:44.625460  8667 layer_factory.hpp:77] Creating layer conv4_2
I0424 08:08:44.625473  8667 net.cpp:100] Creating Layer conv4_2
I0424 08:08:44.625480  8667 net.cpp:434] conv4_2 <- conv4_1
I0424 08:08:44.625485  8667 net.cpp:408] conv4_2 -> conv4_2
I0424 08:08:44.632083  8667 net.cpp:150] Setting up conv4_2
I0424 08:08:44.632115  8667 net.cpp:157] Top shape: 10 512 28 28 (4014080)
I0424 08:08:44.632120  8667 net.cpp:165] Memory required for data: 1073766400
I0424 08:08:44.632136  8667 layer_factory.hpp:77] Creating layer relu4_2
I0424 08:08:44.632148  8667 net.cpp:100] Creating Layer relu4_2
I0424 08:08:44.632153  8667 net.cpp:434] relu4_2 <- conv4_2
I0424 08:08:44.632159  8667 net.cpp:395] relu4_2 -> conv4_2 (in-place)
I0424 08:08:44.632303  8667 net.cpp:150] Setting up relu4_2
I0424 08:08:44.632311  8667 net.cpp:157] Top shape: 10 512 28 28 (4014080)
I0424 08:08:44.632314  8667 net.cpp:165] Memory required for data: 1089822720
I0424 08:08:44.632318  8667 layer_factory.hpp:77] Creating layer conv4_3
I0424 08:08:44.632328  8667 net.cpp:100] Creating Layer conv4_3
I0424 08:08:44.632330  8667 net.cpp:434] conv4_3 <- conv4_2
I0424 08:08:44.632336  8667 net.cpp:408] conv4_3 -> conv4_3
I0424 08:08:44.638010  8667 net.cpp:150] Setting up conv4_3
I0424 08:08:44.638042  8667 net.cpp:157] Top shape: 10 512 28 28 (4014080)
I0424 08:08:44.638047  8667 net.cpp:165] Memory required for data: 1105879040
I0424 08:08:44.638056  8667 layer_factory.hpp:77] Creating layer relu4_3
I0424 08:08:44.638067  8667 net.cpp:100] Creating Layer relu4_3
I0424 08:08:44.638072  8667 net.cpp:434] relu4_3 <- conv4_3
I0424 08:08:44.638077  8667 net.cpp:395] relu4_3 -> conv4_3 (in-place)
I0424 08:08:44.638224  8667 net.cpp:150] Setting up relu4_3
I0424 08:08:44.638232  8667 net.cpp:157] Top shape: 10 512 28 28 (4014080)
I0424 08:08:44.638242  8667 net.cpp:165] Memory required for data: 1121935360
I0424 08:08:44.638247  8667 layer_factory.hpp:77] Creating layer pool4
I0424 08:08:44.638252  8667 net.cpp:100] Creating Layer pool4
I0424 08:08:44.638257  8667 net.cpp:434] pool4 <- conv4_3
I0424 08:08:44.638262  8667 net.cpp:408] pool4 -> pool4
I0424 08:08:44.638303  8667 net.cpp:150] Setting up pool4
I0424 08:08:44.638309  8667 net.cpp:157] Top shape: 10 512 14 14 (1003520)
I0424 08:08:44.638314  8667 net.cpp:165] Memory required for data: 1125949440
I0424 08:08:44.638316  8667 layer_factory.hpp:77] Creating layer conv5_1
I0424 08:08:44.638324  8667 net.cpp:100] Creating Layer conv5_1
I0424 08:08:44.638327  8667 net.cpp:434] conv5_1 <- pool4
I0424 08:08:44.638334  8667 net.cpp:408] conv5_1 -> conv5_1
I0424 08:08:44.643707  8667 net.cpp:150] Setting up conv5_1
I0424 08:08:44.643738  8667 net.cpp:157] Top shape: 10 512 14 14 (1003520)
I0424 08:08:44.643743  8667 net.cpp:165] Memory required for data: 1129963520
I0424 08:08:44.643752  8667 layer_factory.hpp:77] Creating layer relu5_1
I0424 08:08:44.643761  8667 net.cpp:100] Creating Layer relu5_1
I0424 08:08:44.643767  8667 net.cpp:434] relu5_1 <- conv5_1
I0424 08:08:44.643774  8667 net.cpp:395] relu5_1 -> conv5_1 (in-place)
I0424 08:08:44.644109  8667 net.cpp:150] Setting up relu5_1
I0424 08:08:44.644119  8667 net.cpp:157] Top shape: 10 512 14 14 (1003520)
I0424 08:08:44.644122  8667 net.cpp:165] Memory required for data: 1133977600
I0424 08:08:44.644126  8667 layer_factory.hpp:77] Creating layer conv5_2
I0424 08:08:44.644135  8667 net.cpp:100] Creating Layer conv5_2
I0424 08:08:44.644140  8667 net.cpp:434] conv5_2 <- conv5_1
I0424 08:08:44.644145  8667 net.cpp:408] conv5_2 -> conv5_2
I0424 08:08:44.650075  8667 net.cpp:150] Setting up conv5_2
I0424 08:08:44.650107  8667 net.cpp:157] Top shape: 10 512 14 14 (1003520)
I0424 08:08:44.650112  8667 net.cpp:165] Memory required for data: 1137991680
I0424 08:08:44.650120  8667 layer_factory.hpp:77] Creating layer relu5_2
I0424 08:08:44.650131  8667 net.cpp:100] Creating Layer relu5_2
I0424 08:08:44.650136  8667 net.cpp:434] relu5_2 <- conv5_2
I0424 08:08:44.650142  8667 net.cpp:395] relu5_2 -> conv5_2 (in-place)
I0424 08:08:44.650283  8667 net.cpp:150] Setting up relu5_2
I0424 08:08:44.650291  8667 net.cpp:157] Top shape: 10 512 14 14 (1003520)
I0424 08:08:44.650295  8667 net.cpp:165] Memory required for data: 1142005760
I0424 08:08:44.650298  8667 layer_factory.hpp:77] Creating layer conv5_3
I0424 08:08:44.650307  8667 net.cpp:100] Creating Layer conv5_3
I0424 08:08:44.650310  8667 net.cpp:434] conv5_3 <- conv5_2
I0424 08:08:44.650316  8667 net.cpp:408] conv5_3 -> conv5_3
I0424 08:08:44.655596  8667 net.cpp:150] Setting up conv5_3
I0424 08:08:44.655627  8667 net.cpp:157] Top shape: 10 512 14 14 (1003520)
I0424 08:08:44.655632  8667 net.cpp:165] Memory required for data: 1146019840
I0424 08:08:44.655642  8667 layer_factory.hpp:77] Creating layer relu5_3
I0424 08:08:44.655652  8667 net.cpp:100] Creating Layer relu5_3
I0424 08:08:44.655656  8667 net.cpp:434] relu5_3 <- conv5_3
I0424 08:08:44.655663  8667 net.cpp:395] relu5_3 -> conv5_3 (in-place)
I0424 08:08:44.655804  8667 net.cpp:150] Setting up relu5_3
I0424 08:08:44.655812  8667 net.cpp:157] Top shape: 10 512 14 14 (1003520)
I0424 08:08:44.655815  8667 net.cpp:165] Memory required for data: 1150033920
I0424 08:08:44.655819  8667 layer_factory.hpp:77] Creating layer pool5
I0424 08:08:44.655827  8667 net.cpp:100] Creating Layer pool5
I0424 08:08:44.655830  8667 net.cpp:434] pool5 <- conv5_3
I0424 08:08:44.655836  8667 net.cpp:408] pool5 -> pool5
I0424 08:08:44.655881  8667 net.cpp:150] Setting up pool5
I0424 08:08:44.655887  8667 net.cpp:157] Top shape: 10 512 7 7 (250880)
I0424 08:08:44.655890  8667 net.cpp:165] Memory required for data: 1151037440
I0424 08:08:44.655894  8667 layer_factory.hpp:77] Creating layer fc6
I0424 08:08:44.655910  8667 net.cpp:100] Creating Layer fc6
I0424 08:08:44.655913  8667 net.cpp:434] fc6 <- pool5
I0424 08:08:44.655918  8667 net.cpp:408] fc6 -> fc6
I0424 08:08:44.875012  8667 net.cpp:150] Setting up fc6
I0424 08:08:44.875051  8667 net.cpp:157] Top shape: 10 4096 (40960)
I0424 08:08:44.875075  8667 net.cpp:165] Memory required for data: 1151201280
I0424 08:08:44.875092  8667 layer_factory.hpp:77] Creating layer relu6
I0424 08:08:44.875114  8667 net.cpp:100] Creating Layer relu6
I0424 08:08:44.875124  8667 net.cpp:434] relu6 <- fc6
I0424 08:08:44.875134  8667 net.cpp:395] relu6 -> fc6 (in-place)
I0424 08:08:44.875620  8667 net.cpp:150] Setting up relu6
I0424 08:08:44.875633  8667 net.cpp:157] Top shape: 10 4096 (40960)
I0424 08:08:44.875638  8667 net.cpp:165] Memory required for data: 1151365120
I0424 08:08:44.875641  8667 layer_factory.hpp:77] Creating layer drop6
I0424 08:08:44.875649  8667 net.cpp:100] Creating Layer drop6
I0424 08:08:44.875653  8667 net.cpp:434] drop6 <- fc6
I0424 08:08:44.875660  8667 net.cpp:395] drop6 -> fc6 (in-place)
I0424 08:08:44.875695  8667 net.cpp:150] Setting up drop6
I0424 08:08:44.875711  8667 net.cpp:157] Top shape: 10 4096 (40960)
I0424 08:08:44.875715  8667 net.cpp:165] Memory required for data: 1151528960
I0424 08:08:44.875718  8667 layer_factory.hpp:77] Creating layer fc7
I0424 08:08:44.875725  8667 net.cpp:100] Creating Layer fc7
I0424 08:08:44.875728  8667 net.cpp:434] fc7 <- fc6
I0424 08:08:44.875733  8667 net.cpp:408] fc7 -> fc7
I0424 08:08:44.911619  8667 net.cpp:150] Setting up fc7
I0424 08:08:44.911661  8667 net.cpp:157] Top shape: 10 4096 (40960)
I0424 08:08:44.911666  8667 net.cpp:165] Memory required for data: 1151692800
I0424 08:08:44.911679  8667 layer_factory.hpp:77] Creating layer relu7
I0424 08:08:44.911691  8667 net.cpp:100] Creating Layer relu7
I0424 08:08:44.911696  8667 net.cpp:434] relu7 <- fc7
I0424 08:08:44.911703  8667 net.cpp:395] relu7 -> fc7 (in-place)
I0424 08:08:44.911901  8667 net.cpp:150] Setting up relu7
I0424 08:08:44.911908  8667 net.cpp:157] Top shape: 10 4096 (40960)
I0424 08:08:44.911912  8667 net.cpp:165] Memory required for data: 1151856640
I0424 08:08:44.911916  8667 layer_factory.hpp:77] Creating layer drop7
I0424 08:08:44.911922  8667 net.cpp:100] Creating Layer drop7
I0424 08:08:44.911926  8667 net.cpp:434] drop7 <- fc7
I0424 08:08:44.911931  8667 net.cpp:395] drop7 -> fc7 (in-place)
I0424 08:08:44.911958  8667 net.cpp:150] Setting up drop7
I0424 08:08:44.911964  8667 net.cpp:157] Top shape: 10 4096 (40960)
I0424 08:08:44.911967  8667 net.cpp:165] Memory required for data: 1152020480
I0424 08:08:44.911972  8667 layer_factory.hpp:77] Creating layer fc8
I0424 08:08:44.911978  8667 net.cpp:100] Creating Layer fc8
I0424 08:08:44.911981  8667 net.cpp:434] fc8 <- fc7
I0424 08:08:44.911986  8667 net.cpp:408] fc8 -> fc8
I0424 08:08:44.920866  8667 net.cpp:150] Setting up fc8
I0424 08:08:44.920902  8667 net.cpp:157] Top shape: 10 1000 (10000)
I0424 08:08:44.920905  8667 net.cpp:165] Memory required for data: 1152060480
I0424 08:08:44.920914  8667 layer_factory.hpp:77] Creating layer prob
I0424 08:08:44.920924  8667 net.cpp:100] Creating Layer prob
I0424 08:08:44.920928  8667 net.cpp:434] prob <- fc8
I0424 08:08:44.920935  8667 net.cpp:408] prob -> prob
I0424 08:08:44.921370  8667 net.cpp:150] Setting up prob
I0424 08:08:44.921380  8667 net.cpp:157] Top shape: 10 1000 (10000)
I0424 08:08:44.921385  8667 net.cpp:165] Memory required for data: 1152100480
I0424 08:08:44.921388  8667 net.cpp:228] prob does not need backward computation.
I0424 08:08:44.921392  8667 net.cpp:228] fc8 does not need backward computation.
I0424 08:08:44.921396  8667 net.cpp:228] drop7 does not need backward computation.
I0424 08:08:44.921399  8667 net.cpp:228] relu7 does not need backward computation.
…
