…
I0510 06:37:48.305796  5992 solver.cpp:81] Creating training net from train_net file: train.prototxt
I0510 06:37:48.306418  5992 net.cpp:358] The NetState did not contain stage 'deploy' specified by a rule in layer dice
I0510 06:37:48.306578  5992 net.cpp:58] Initializing net from parameters: 
state {
  phase: TRAIN
}
layer {
  name: "data"
  type: "Python"
  top: "data"
  top: "label"
  python_param {
    module: "voc_layers"
    layer: "VOCSegDataLayer"
    param_str: "{\'voc_dir\': \'/home/zeven/caffe/examples/fcn/CT-fcn32s/CTData\', \'seed\': 1337, \'split\': \'train\', \'mean\': (111.279988426, 111.279988426, 111.279988426)}"
  }
}
layer {
  name: "conv1_1"
  type: "Convolution"
  bottom: "data"
  top: "conv1_1"
  param {
    lr_mult: 1
    decay_mult: 1
  }
  param {
    lr_mult: 2
    decay_mult: 0
  }
  convolution_param {
    num_output: 64
    pad: 100
    kernel_size: 3
    stride: 1
  }
}
layer {
  name: "relu1_1"
  type: "ReLU"
  bottom: "conv1_1"
  top: "conv1_1"
}
layer {
  name: "conv1_2"
  type: "Convolution"
  bottom: "conv1_1"
  top: "conv1_2"
  param {
    lr_mult: 1
    decay_mult: 1
  }
  param {
    lr_mult: 2
    decay_mult: 0
  }
  convolution_param {
    num_output: 64
    pad: 1
    kernel_size: 3
    stride: 1
  }
}
layer {
  name: "relu1_2"
  type: "ReLU"
  bottom: "conv1_2"
  top: "conv1_2"
}
layer {
  name: "pool1"
  type: "Pooling"
  bottom: "conv1_2"
  top: "pool1"
  pooling_param {
    pool: MAX
    kernel_size: 2
    stride: 2
  }
}
layer {
  name: "conv2_1"
  type: "Convolution"
  bottom: "pool1"
  top: "conv2_1"
  param {
    lr_mult: 1
    decay_mult: 1
  }
  param {
    lr_mult: 2
    decay_mult: 0
  }
  convolution_param {
    num_output: 128
    pad: 1
    kernel_size: 3
    stride: 1
  }
}
layer {
  name: "relu2_1"
  type: "ReLU"
  bottom: "conv2_1"
  top: "conv2_1"
}
layer {
  name: "conv2_2"
  type: "Convolution"
  bottom: "conv2_1"
  top: "conv2_2"
  param {
    lr_mult: 1
    decay_mult: 1
  }
  param {
    lr_mult: 2
    decay_mult: 0
  }
  convolution_param {
    num_output: 128
    pad: 1
    kernel_size: 3
    stride: 1
  }
}
layer {
  name: "relu2_2"
  type: "ReLU"
  bottom: "conv2_2"
  top: "conv2_2"
}
layer {
  name: "pool2"
  type: "Pooling"
  bottom: "conv2_2"
  top: "pool2"
  pooling_param {
    pool: MAX
    kernel_size: 2
    stride: 2
  }
}
layer {
  name: "conv3_1"
  type: "Convolution"
  bottom: "pool2"
  top: "conv3_1"
  param {
    lr_mult: 1
    decay_mult: 1
  }
  param {
    lr_mult: 2
    decay_mult: 0
  }
  convolution_param {
    num_output: 256
    pad: 1
    kernel_size: 3
    stride: 1
  }
}
layer {
  name: "relu3_1"
  type: "ReLU"
  bottom: "conv3_1"
  top: "conv3_1"
}
layer {
  name: "conv3_2"
  type: "Convolution"
  bottom: "conv3_1"
  top: "conv3_2"
  param {
    lr_mult: 1
    decay_mult: 1
  }
  param {
    lr_mult: 2
    decay_mult: 0
  }
  convolution_param {
    num_output: 256
    pad: 1
    kernel_size: 3
    stride: 1
  }
}
layer {
  name: "relu3_2"
  type: "ReLU"
  bottom: "conv3_2"
  top: "conv3_2"
}
layer {
  name: "conv3_3"
  type: "Convolution"
  bottom: "conv3_2"
  top: "conv3_3"
  param {
    lr_mult: 1
    decay_mult: 1
  }
  param {
    lr_mult: 2
    decay_mult: 0
  }
  convolution_param {
    num_output: 256
    pad: 1
    kernel_size: 3
    stride: 1
  }
}
layer {
  name: "relu3_3"
  type: "ReLU"
  bottom: "conv3_3"
  top: "conv3_3"
}
layer {
  name: "pool3"
  type: "Pooling"
  bottom: "conv3_3"
  top: "pool3"
  pooling_param {
    pool: MAX
    kernel_size: 2
    stride: 2
  }
}
layer {
  name: "conv4_1"
  type: "Convolution"
  bottom: "pool3"
  top: "conv4_1"
  param {
    lr_mult: 1
    decay_mult: 1
  }
  param {
    lr_mult: 2
    decay_mult: 0
  }
  convolution_param {
    num_output: 512
    pad: 1
    kernel_size: 3
    stride: 1
  }
}
layer {
  name: "relu4_1"
  type: "ReLU"
  bottom: "conv4_1"
  top: "conv4_1"
}
layer {
  name: "conv4_2"
  type: "Convolution"
  bottom: "conv4_1"
  top: "conv4_2"
  param {
    lr_mult: 1
    decay_mult: 1
  }
  param {
    lr_mult: 2
    decay_mult: 0
  }
  convolution_param {
    num_output: 512
    pad: 1
    kernel_size: 3
    stride: 1
  }
}
layer {
  name: "relu4_2"
  type: "ReLU"
  bottom: "conv4_2"
  top: "conv4_2"
}
layer {
  name: "conv4_3"
  type: "Convolution"
  bottom: "conv4_2"
  top: "conv4_3"
  param {
    lr_mult: 1
    decay_mult: 1
  }
  param {
    lr_mult: 2
    decay_mult: 0
  }
  convolution_param {
    num_output: 512
    pad: 1
    kernel_size: 3
    stride: 1
  }
}
layer {
  name: "relu4_3"
  type: "ReLU"
  bottom: "conv4_3"
  top: "conv4_3"
}
layer {
  name: "pool4"
  type: "Pooling"
  bottom: "conv4_3"
  top: "pool4"
  pooling_param {
    pool: MAX
    kernel_size: 2
    stride: 2
  }
}
layer {
  name: "conv5_1"
  type: "Convolution"
  bottom: "pool4"
  top: "conv5_1"
  param {
    lr_mult: 1
    decay_mult: 1
  }
  param {
    lr_mult: 2
    decay_mult: 0
  }
  convolution_param {
    num_output: 512
    pad: 1
    kernel_size: 3
    stride: 1
  }
}
layer {
  name: "relu5_1"
  type: "ReLU"
  bottom: "conv5_1"
  top: "conv5_1"
}
layer {
  name: "conv5_2"
  type: "Convolution"
  bottom: "conv5_1"
  top: "conv5_2"
  param {
    lr_mult: 1
    decay_mult: 1
  }
  param {
    lr_mult: 2
    decay_mult: 0
  }
  convolution_param {
    num_output: 512
    pad: 1
    kernel_size: 3
    stride: 1
  }
}
layer {
  name: "relu5_2"
  type: "ReLU"
  bottom: "conv5_2"
  top: "conv5_2"
}
layer {
  name: "conv5_3"
  type: "Convolution"
  bottom: "conv5_2"
  top: "conv5_3"
  param {
    lr_mult: 1
    decay_mult: 1
  }
  param {
    lr_mult: 2
    decay_mult: 0
  }
  convolution_param {
    num_output: 512
    pad: 1
    kernel_size: 3
    stride: 1
  }
}
layer {
  name: "relu5_3"
  type: "ReLU"
  bottom: "conv5_3"
  top: "conv5_3"
}
layer {
  name: "pool5"
  type: "Pooling"
  bottom: "conv5_3"
  top: "pool5"
  pooling_param {
    pool: MAX
    kernel_size: 2
    stride: 2
  }
}
layer {
  name: "fc6"
  type: "Convolution"
  bottom: "pool5"
  top: "fc6"
  param {
    lr_mult: 1
    decay_mult: 1
  }
  param {
    lr_mult: 2
    decay_mult: 0
  }
  convolution_param {
    num_output: 4096
    pad: 0
    kernel_size: 7
    stride: 1
  }
}
layer {
  name: "relu6"
  type: "ReLU"
  bottom: "fc6"
  top: "fc6"
}
layer {
  name: "drop6"
  type: "Dropout"
  bottom: "fc6"
  top: "fc6"
  dropout_param {
    dropout_ratio: 0.5
  }
}
layer {
  name: "fc7"
  type: "Convolution"
  bottom: "fc6"
  top: "fc7"
  param {
    lr_mult: 1
    decay_mult: 1
  }
  param {
    lr_mult: 2
    decay_mult: 0
  }
  convolution_param {
    num_output: 4096
    pad: 0
    kernel_size: 1
    stride: 1
  }
}
layer {
  name: "relu7"
  type: "ReLU"
  bottom: "fc7"
  top: "fc7"
}
layer {
  name: "drop7"
  type: "Dropout"
  bottom: "fc7"
  top: "fc7"
  dropout_param {
    dropout_ratio: 0.5
  }
}
layer {
  name: "score_fr"
  type: "Convolution"
  bottom: "fc7"
  top: "score_fr"
  param {
    lr_mult: 1
    decay_mult: 1
  }
  param {
    lr_mult: 2
    decay_mult: 0
  }
  convolution_param {
    num_output: 2
    pad: 0
    kernel_size: 1
  }
}
layer {
  name: "upscore2"
  type: "Deconvolution"
  bottom: "score_fr"
  top: "upscore2"
  param {
    lr_mult: 0
  }
  convolution_param {
    num_output: 2
    bias_term: false
    kernel_size: 4
    stride: 2
  }
}
layer {
  name: "score_pool4"
  type: "Convolution"
  bottom: "pool4"
  top: "score_pool4"
  param {
    lr_mult: 1
    decay_mult: 1
  }
  param {
    lr_mult: 2
    decay_mult: 0
  }
  convolution_param {
    num_output: 2
    pad: 0
    kernel_size: 1
  }
}
layer {
  name: "score_pool4c"
  type: "Crop"
  bottom: "score_pool4"
  bottom: "upscore2"
  top: "score_pool4c"
  crop_param {
    axis: 2
    offset: 5
  }
}
layer {
  name: "fuse_pool4"
  type: "Eltwise"
  bottom: "upscore2"
  bottom: "score_pool4c"
  top: "fuse_pool4"
  eltwise_param {
    operation: SUM
  }
}
layer {
  name: "upscore_pool4"
  type: "Deconvolution"
  bottom: "fuse_pool4"
  top: "upscore_pool4"
  param {
    lr_mult: 0
  }
  convolution_param {
    num_output: 2
    bias_term: false
    kernel_size: 4
    stride: 2
  }
}
layer {
  name: "score_pool3"
  type: "Convolution"
  bottom: "pool3"
  top: "score_pool3"
  param {
    lr_mult: 1
    decay_mult: 1
  }
  param {
    lr_mult: 2
    decay_mult: 0
  }
  convolution_param {
    num_output: 2
    pad: 0
    kernel_size: 1
  }
}
layer {
  name: "score_pool3c"
  type: "Crop"
  bottom: "score_pool3"
  bottom: "upscore_pool4"
  top: "score_pool3c"
  crop_param {
    axis: 2
    offset: 9
  }
}
layer {
  name: "fuse_pool3"
  type: "Eltwise"
  bottom: "upscore_pool4"
  bottom: "score_pool3c"
  top: "fuse_pool3"
  eltwise_param {
    operation: SUM
  }
}
layer {
  name: "upscore8"
  type: "Deconvolution"
  bottom: "fuse_pool3"
  top: "upscore8"
  param {
    lr_mult: 0
  }
  convolution_param {
    num_output: 2
    bias_term: false
    kernel_size: 16
    stride: 8
  }
}
layer {
  name: "score"
  type: "Crop"
  bottom: "upscore8"
  bottom: "data"
  top: "score"
  crop_param {
    axis: 2
    offset: 31
  }
}
layer {
  name: "loss"
  type: "SoftmaxWithLoss"
  bottom: "score"
  bottom: "label"
  top: "loss"
  loss_param {
    ignore_label: 255
    normalize: false
  }
}
layer {
  name: "dice"
  type: "Python"
  bottom: "score"
  bottom: "label"
  top: "dice"
  exclude {
    stage: "deploy"
  }
  python_param {
    module: "dice"
    layer: "Dice"
  }
}
I0510 06:37:48.306732  5992 layer_factory.hpp:77] Creating layer data
I0510 06:37:48.306993  5992 net.cpp:100] Creating Layer data
I0510 06:37:48.307003  5992 net.cpp:408] data -> data
I0510 06:37:48.307013  5992 net.cpp:408] data -> label
I0510 06:37:49.108693  5992 net.cpp:150] Setting up data
I0510 06:37:49.108728  5992 net.cpp:157] Top shape: 1 3 512 512 (786432)
I0510 06:37:49.108732  5992 net.cpp:157] Top shape: 1 1 512 512 (262144)
I0510 06:37:49.108736  5992 net.cpp:165] Memory required for data: 4194304
I0510 06:37:49.108741  5992 layer_factory.hpp:77] Creating layer data_data_0_split
I0510 06:37:49.108753  5992 net.cpp:100] Creating Layer data_data_0_split
I0510 06:37:49.108758  5992 net.cpp:434] data_data_0_split <- data
I0510 06:37:49.108767  5992 net.cpp:408] data_data_0_split -> data_data_0_split_0
I0510 06:37:49.108777  5992 net.cpp:408] data_data_0_split -> data_data_0_split_1
I0510 06:37:49.108800  5992 net.cpp:150] Setting up data_data_0_split
I0510 06:37:49.108805  5992 net.cpp:157] Top shape: 1 3 512 512 (786432)
I0510 06:37:49.108809  5992 net.cpp:157] Top shape: 1 3 512 512 (786432)
I0510 06:37:49.108813  5992 net.cpp:165] Memory required for data: 10485760
I0510 06:37:49.108815  5992 layer_factory.hpp:77] Creating layer label_data_1_split
I0510 06:37:49.108820  5992 net.cpp:100] Creating Layer label_data_1_split
I0510 06:37:49.108824  5992 net.cpp:434] label_data_1_split <- label
I0510 06:37:49.108827  5992 net.cpp:408] label_data_1_split -> label_data_1_split_0
I0510 06:37:49.108832  5992 net.cpp:408] label_data_1_split -> label_data_1_split_1
I0510 06:37:49.108850  5992 net.cpp:150] Setting up label_data_1_split
I0510 06:37:49.108855  5992 net.cpp:157] Top shape: 1 1 512 512 (262144)
I0510 06:37:49.108860  5992 net.cpp:157] Top shape: 1 1 512 512 (262144)
I0510 06:37:49.108861  5992 net.cpp:165] Memory required for data: 12582912
I0510 06:37:49.108865  5992 layer_factory.hpp:77] Creating layer conv1_1
I0510 06:37:49.108875  5992 net.cpp:100] Creating Layer conv1_1
I0510 06:37:49.108880  5992 net.cpp:434] conv1_1 <- data_data_0_split_0
I0510 06:37:49.108883  5992 net.cpp:408] conv1_1 -> conv1_1
I0510 06:37:49.755465  5992 net.cpp:150] Setting up conv1_1
I0510 06:37:49.755492  5992 net.cpp:157] Top shape: 1 64 710 710 (32262400)
I0510 06:37:49.755496  5992 net.cpp:165] Memory required for data: 141632512
I0510 06:37:49.755512  5992 layer_factory.hpp:77] Creating layer relu1_1
I0510 06:37:49.755528  5992 net.cpp:100] Creating Layer relu1_1
I0510 06:37:49.755533  5992 net.cpp:434] relu1_1 <- conv1_1
I0510 06:37:49.755539  5992 net.cpp:395] relu1_1 -> conv1_1 (in-place)
I0510 06:37:49.755751  5992 net.cpp:150] Setting up relu1_1
I0510 06:37:49.755760  5992 net.cpp:157] Top shape: 1 64 710 710 (32262400)
I0510 06:37:49.755764  5992 net.cpp:165] Memory required for data: 270682112
I0510 06:37:49.755767  5992 layer_factory.hpp:77] Creating layer conv1_2
I0510 06:37:49.755776  5992 net.cpp:100] Creating Layer conv1_2
I0510 06:37:49.755779  5992 net.cpp:434] conv1_2 <- conv1_1
I0510 06:37:49.755784  5992 net.cpp:408] conv1_2 -> conv1_2
I0510 06:37:49.757441  5992 net.cpp:150] Setting up conv1_2
I0510 06:37:49.757453  5992 net.cpp:157] Top shape: 1 64 710 710 (32262400)
I0510 06:37:49.757457  5992 net.cpp:165] Memory required for data: 399731712
I0510 06:37:49.757464  5992 layer_factory.hpp:77] Creating layer relu1_2
I0510 06:37:49.757470  5992 net.cpp:100] Creating Layer relu1_2
I0510 06:37:49.757473  5992 net.cpp:434] relu1_2 <- conv1_2
I0510 06:37:49.757478  5992 net.cpp:395] relu1_2 -> conv1_2 (in-place)
I0510 06:37:49.757594  5992 net.cpp:150] Setting up relu1_2
I0510 06:37:49.757601  5992 net.cpp:157] Top shape: 1 64 710 710 (32262400)
I0510 06:37:49.757604  5992 net.cpp:165] Memory required for data: 528781312
I0510 06:37:49.757608  5992 layer_factory.hpp:77] Creating layer pool1
I0510 06:37:49.757614  5992 net.cpp:100] Creating Layer pool1
I0510 06:37:49.757617  5992 net.cpp:434] pool1 <- conv1_2
I0510 06:37:49.757622  5992 net.cpp:408] pool1 -> pool1
I0510 06:37:49.757654  5992 net.cpp:150] Setting up pool1
I0510 06:37:49.757660  5992 net.cpp:157] Top shape: 1 64 355 355 (8065600)
I0510 06:37:49.757663  5992 net.cpp:165] Memory required for data: 561043712
I0510 06:37:49.757666  5992 layer_factory.hpp:77] Creating layer conv2_1
I0510 06:37:49.757674  5992 net.cpp:100] Creating Layer conv2_1
I0510 06:37:49.757678  5992 net.cpp:434] conv2_1 <- pool1
I0510 06:37:49.757683  5992 net.cpp:408] conv2_1 -> conv2_1
I0510 06:37:49.758796  5992 net.cpp:150] Setting up conv2_1
I0510 06:37:49.758807  5992 net.cpp:157] Top shape: 1 128 355 355 (16131200)
I0510 06:37:49.758810  5992 net.cpp:165] Memory required for data: 625568512
I0510 06:37:49.758818  5992 layer_factory.hpp:77] Creating layer relu2_1
I0510 06:37:49.758823  5992 net.cpp:100] Creating Layer relu2_1
I0510 06:37:49.758827  5992 net.cpp:434] relu2_1 <- conv2_1
I0510 06:37:49.758832  5992 net.cpp:395] relu2_1 -> conv2_1 (in-place)
I0510 06:37:49.758957  5992 net.cpp:150] Setting up relu2_1
I0510 06:37:49.758965  5992 net.cpp:157] Top shape: 1 128 355 355 (16131200)
I0510 06:37:49.758978  5992 net.cpp:165] Memory required for data: 690093312
I0510 06:37:49.758983  5992 layer_factory.hpp:77] Creating layer conv2_2
I0510 06:37:49.758993  5992 net.cpp:100] Creating Layer conv2_2
I0510 06:37:49.758999  5992 net.cpp:434] conv2_2 <- conv2_1
I0510 06:37:49.759017  5992 net.cpp:408] conv2_2 -> conv2_2
I0510 06:37:49.760464  5992 net.cpp:150] Setting up conv2_2
I0510 06:37:49.760475  5992 net.cpp:157] Top shape: 1 128 355 355 (16131200)
I0510 06:37:49.760478  5992 net.cpp:165] Memory required for data: 754618112
I0510 06:37:49.760484  5992 layer_factory.hpp:77] Creating layer relu2_2
I0510 06:37:49.760490  5992 net.cpp:100] Creating Layer relu2_2
I0510 06:37:49.760494  5992 net.cpp:434] relu2_2 <- conv2_2
I0510 06:37:49.760499  5992 net.cpp:395] relu2_2 -> conv2_2 (in-place)
I0510 06:37:49.760715  5992 net.cpp:150] Setting up relu2_2
I0510 06:37:49.760723  5992 net.cpp:157] Top shape: 1 128 355 355 (16131200)
I0510 06:37:49.760727  5992 net.cpp:165] Memory required for data: 819142912
I0510 06:37:49.760730  5992 layer_factory.hpp:77] Creating layer pool2
I0510 06:37:49.760735  5992 net.cpp:100] Creating Layer pool2
I0510 06:37:49.760740  5992 net.cpp:434] pool2 <- conv2_2
I0510 06:37:49.760746  5992 net.cpp:408] pool2 -> pool2
I0510 06:37:49.760776  5992 net.cpp:150] Setting up pool2
I0510 06:37:49.760782  5992 net.cpp:157] Top shape: 1 128 178 178 (4055552)
I0510 06:37:49.760789  5992 net.cpp:165] Memory required for data: 835365120
I0510 06:37:49.760792  5992 layer_factory.hpp:77] Creating layer conv3_1
I0510 06:37:49.760800  5992 net.cpp:100] Creating Layer conv3_1
I0510 06:37:49.760803  5992 net.cpp:434] conv3_1 <- pool2
I0510 06:37:49.760808  5992 net.cpp:408] conv3_1 -> conv3_1
I0510 06:37:49.762032  5992 net.cpp:150] Setting up conv3_1
I0510 06:37:49.762042  5992 net.cpp:157] Top shape: 1 256 178 178 (8111104)
I0510 06:37:49.762044  5992 net.cpp:165] Memory required for data: 867809536
I0510 06:37:49.762053  5992 layer_factory.hpp:77] Creating layer relu3_1
I0510 06:37:49.762059  5992 net.cpp:100] Creating Layer relu3_1
I0510 06:37:49.762063  5992 net.cpp:434] relu3_1 <- conv3_1
I0510 06:37:49.762068  5992 net.cpp:395] relu3_1 -> conv3_1 (in-place)
I0510 06:37:49.762202  5992 net.cpp:150] Setting up relu3_1
I0510 06:37:49.762209  5992 net.cpp:157] Top shape: 1 256 178 178 (8111104)
I0510 06:37:49.762212  5992 net.cpp:165] Memory required for data: 900253952
I0510 06:37:49.762217  5992 layer_factory.hpp:77] Creating layer conv3_2
I0510 06:37:49.762223  5992 net.cpp:100] Creating Layer conv3_2
I0510 06:37:49.762226  5992 net.cpp:434] conv3_2 <- conv3_1
I0510 06:37:49.762233  5992 net.cpp:408] conv3_2 -> conv3_2
I0510 06:37:49.763810  5992 net.cpp:150] Setting up conv3_2
I0510 06:37:49.763820  5992 net.cpp:157] Top shape: 1 256 178 178 (8111104)
I0510 06:37:49.763824  5992 net.cpp:165] Memory required for data: 932698368
I0510 06:37:49.763829  5992 layer_factory.hpp:77] Creating layer relu3_2
I0510 06:37:49.763837  5992 net.cpp:100] Creating Layer relu3_2
I0510 06:37:49.763841  5992 net.cpp:434] relu3_2 <- conv3_2
I0510 06:37:49.763846  5992 net.cpp:395] relu3_2 -> conv3_2 (in-place)
I0510 06:37:49.763974  5992 net.cpp:150] Setting up relu3_2
I0510 06:37:49.763981  5992 net.cpp:157] Top shape: 1 256 178 178 (8111104)
I0510 06:37:49.763985  5992 net.cpp:165] Memory required for data: 965142784
I0510 06:37:49.763988  5992 layer_factory.hpp:77] Creating layer conv3_3
I0510 06:37:49.763994  5992 net.cpp:100] Creating Layer conv3_3
I0510 06:37:49.763998  5992 net.cpp:434] conv3_3 <- conv3_2
I0510 06:37:49.764004  5992 net.cpp:408] conv3_3 -> conv3_3
I0510 06:37:49.765689  5992 net.cpp:150] Setting up conv3_3
I0510 06:37:49.765703  5992 net.cpp:157] Top shape: 1 256 178 178 (8111104)
I0510 06:37:49.765707  5992 net.cpp:165] Memory required for data: 997587200
I0510 06:37:49.765713  5992 layer_factory.hpp:77] Creating layer relu3_3
I0510 06:37:49.765719  5992 net.cpp:100] Creating Layer relu3_3
I0510 06:37:49.765722  5992 net.cpp:434] relu3_3 <- conv3_3
I0510 06:37:49.765728  5992 net.cpp:395] relu3_3 -> conv3_3 (in-place)
I0510 06:37:49.765949  5992 net.cpp:150] Setting up relu3_3
I0510 06:37:49.765957  5992 net.cpp:157] Top shape: 1 256 178 178 (8111104)
I0510 06:37:49.765961  5992 net.cpp:165] Memory required for data: 1030031616
I0510 06:37:49.765964  5992 layer_factory.hpp:77] Creating layer pool3
I0510 06:37:49.765970  5992 net.cpp:100] Creating Layer pool3
I0510 06:37:49.765974  5992 net.cpp:434] pool3 <- conv3_3
I0510 06:37:49.765980  5992 net.cpp:408] pool3 -> pool3
I0510 06:37:49.766012  5992 net.cpp:150] Setting up pool3
I0510 06:37:49.766017  5992 net.cpp:157] Top shape: 1 256 89 89 (2027776)
I0510 06:37:49.766021  5992 net.cpp:165] Memory required for data: 1038142720
I0510 06:37:49.766023  5992 layer_factory.hpp:77] Creating layer pool3_pool3_0_split
I0510 06:37:49.766029  5992 net.cpp:100] Creating Layer pool3_pool3_0_split
I0510 06:37:49.766032  5992 net.cpp:434] pool3_pool3_0_split <- pool3
I0510 06:37:49.766036  5992 net.cpp:408] pool3_pool3_0_split -> pool3_pool3_0_split_0
I0510 06:37:49.766044  5992 net.cpp:408] pool3_pool3_0_split -> pool3_pool3_0_split_1
I0510 06:37:49.766068  5992 net.cpp:150] Setting up pool3_pool3_0_split
I0510 06:37:49.766074  5992 net.cpp:157] Top shape: 1 256 89 89 (2027776)
I0510 06:37:49.766077  5992 net.cpp:157] Top shape: 1 256 89 89 (2027776)
I0510 06:37:49.766080  5992 net.cpp:165] Memory required for data: 1054364928
I0510 06:37:49.766090  5992 layer_factory.hpp:77] Creating layer conv4_1
I0510 06:37:49.766098  5992 net.cpp:100] Creating Layer conv4_1
I0510 06:37:49.766101  5992 net.cpp:434] conv4_1 <- pool3_pool3_0_split_0
I0510 06:37:49.766106  5992 net.cpp:408] conv4_1 -> conv4_1
I0510 06:37:49.769230  5992 net.cpp:150] Setting up conv4_1
I0510 06:37:49.769253  5992 net.cpp:157] Top shape: 1 512 89 89 (4055552)
I0510 06:37:49.769258  5992 net.cpp:165] Memory required for data: 1070587136
I0510 06:37:49.769266  5992 layer_factory.hpp:77] Creating layer relu4_1
I0510 06:37:49.769274  5992 net.cpp:100] Creating Layer relu4_1
I0510 06:37:49.769279  5992 net.cpp:434] relu4_1 <- conv4_1
I0510 06:37:49.769286  5992 net.cpp:395] relu4_1 -> conv4_1 (in-place)
I0510 06:37:49.769505  5992 net.cpp:150] Setting up relu4_1
I0510 06:37:49.769513  5992 net.cpp:157] Top shape: 1 512 89 89 (4055552)
I0510 06:37:49.769516  5992 net.cpp:165] Memory required for data: 1086809344
I0510 06:37:49.769520  5992 layer_factory.hpp:77] Creating layer conv4_2
I0510 06:37:49.769529  5992 net.cpp:100] Creating Layer conv4_2
I0510 06:37:49.769533  5992 net.cpp:434] conv4_2 <- conv4_1
I0510 06:37:49.769538  5992 net.cpp:408] conv4_2 -> conv4_2
I0510 06:37:49.774711  5992 net.cpp:150] Setting up conv4_2
I0510 06:37:49.774739  5992 net.cpp:157] Top shape: 1 512 89 89 (4055552)
I0510 06:37:49.774744  5992 net.cpp:165] Memory required for data: 1103031552
I0510 06:37:49.774755  5992 layer_factory.hpp:77] Creating layer relu4_2
I0510 06:37:49.774766  5992 net.cpp:100] Creating Layer relu4_2
I0510 06:37:49.774771  5992 net.cpp:434] relu4_2 <- conv4_2
I0510 06:37:49.774777  5992 net.cpp:395] relu4_2 -> conv4_2 (in-place)
I0510 06:37:49.774910  5992 net.cpp:150] Setting up relu4_2
I0510 06:37:49.774917  5992 net.cpp:157] Top shape: 1 512 89 89 (4055552)
I0510 06:37:49.774920  5992 net.cpp:165] Memory required for data: 1119253760
I0510 06:37:49.774924  5992 layer_factory.hpp:77] Creating layer conv4_3
I0510 06:37:49.774935  5992 net.cpp:100] Creating Layer conv4_3
I0510 06:37:49.774937  5992 net.cpp:434] conv4_3 <- conv4_2
I0510 06:37:49.774942  5992 net.cpp:408] conv4_3 -> conv4_3
I0510 06:37:49.780627  5992 net.cpp:150] Setting up conv4_3
I0510 06:37:49.780654  5992 net.cpp:157] Top shape: 1 512 89 89 (4055552)
I0510 06:37:49.780658  5992 net.cpp:165] Memory required for data: 1135475968
I0510 06:37:49.780666  5992 layer_factory.hpp:77] Creating layer relu4_3
I0510 06:37:49.780674  5992 net.cpp:100] Creating Layer relu4_3
I0510 06:37:49.780679  5992 net.cpp:434] relu4_3 <- conv4_3
I0510 06:37:49.780686  5992 net.cpp:395] relu4_3 -> conv4_3 (in-place)
I0510 06:37:49.780905  5992 net.cpp:150] Setting up relu4_3
I0510 06:37:49.780913  5992 net.cpp:157] Top shape: 1 512 89 89 (4055552)
I0510 06:37:49.780917  5992 net.cpp:165] Memory required for data: 1151698176
I0510 06:37:49.780920  5992 layer_factory.hpp:77] Creating layer pool4
I0510 06:37:49.780927  5992 net.cpp:100] Creating Layer pool4
I0510 06:37:49.780932  5992 net.cpp:434] pool4 <- conv4_3
I0510 06:37:49.780937  5992 net.cpp:408] pool4 -> pool4
I0510 06:37:49.780972  5992 net.cpp:150] Setting up pool4
I0510 06:37:49.780977  5992 net.cpp:157] Top shape: 1 512 45 45 (1036800)
I0510 06:37:49.780980  5992 net.cpp:165] Memory required for data: 1155845376
I0510 06:37:49.780983  5992 layer_factory.hpp:77] Creating layer pool4_pool4_0_split
I0510 06:37:49.780988  5992 net.cpp:100] Creating Layer pool4_pool4_0_split
I0510 06:37:49.780992  5992 net.cpp:434] pool4_pool4_0_split <- pool4
I0510 06:37:49.780995  5992 net.cpp:408] pool4_pool4_0_split -> pool4_pool4_0_split_0
I0510 06:37:49.781000  5992 net.cpp:408] pool4_pool4_0_split -> pool4_pool4_0_split_1
I0510 06:37:49.781026  5992 net.cpp:150] Setting up pool4_pool4_0_split
I0510 06:37:49.781031  5992 net.cpp:157] Top shape: 1 512 45 45 (1036800)
I0510 06:37:49.781034  5992 net.cpp:157] Top shape: 1 512 45 45 (1036800)
I0510 06:37:49.781038  5992 net.cpp:165] Memory required for data: 1164139776
I0510 06:37:49.781040  5992 layer_factory.hpp:77] Creating layer conv5_1
I0510 06:37:49.781055  5992 net.cpp:100] Creating Layer conv5_1
I0510 06:37:49.781059  5992 net.cpp:434] conv5_1 <- pool4_pool4_0_split_0
I0510 06:37:49.781065  5992 net.cpp:408] conv5_1 -> conv5_1
I0510 06:37:49.786520  5992 net.cpp:150] Setting up conv5_1
I0510 06:37:49.786550  5992 net.cpp:157] Top shape: 1 512 45 45 (1036800)
I0510 06:37:49.786553  5992 net.cpp:165] Memory required for data: 1168286976
I0510 06:37:49.786562  5992 layer_factory.hpp:77] Creating layer relu5_1
I0510 06:37:49.786571  5992 net.cpp:100] Creating Layer relu5_1
I0510 06:37:49.786577  5992 net.cpp:434] relu5_1 <- conv5_1
I0510 06:37:49.786584  5992 net.cpp:395] relu5_1 -> conv5_1 (in-place)
I0510 06:37:49.786722  5992 net.cpp:150] Setting up relu5_1
I0510 06:37:49.786731  5992 net.cpp:157] Top shape: 1 512 45 45 (1036800)
I0510 06:37:49.786734  5992 net.cpp:165] Memory required for data: 1172434176
I0510 06:37:49.786738  5992 layer_factory.hpp:77] Creating layer conv5_2
I0510 06:37:49.786747  5992 net.cpp:100] Creating Layer conv5_2
I0510 06:37:49.786751  5992 net.cpp:434] conv5_2 <- conv5_1
I0510 06:37:49.786756  5992 net.cpp:408] conv5_2 -> conv5_2
I0510 06:37:49.791940  5992 net.cpp:150] Setting up conv5_2
I0510 06:37:49.791965  5992 net.cpp:157] Top shape: 1 512 45 45 (1036800)
I0510 06:37:49.791970  5992 net.cpp:165] Memory required for data: 1176581376
I0510 06:37:49.791977  5992 layer_factory.hpp:77] Creating layer relu5_2
I0510 06:37:49.791991  5992 net.cpp:100] Creating Layer relu5_2
I0510 06:37:49.791996  5992 net.cpp:434] relu5_2 <- conv5_2
I0510 06:37:49.792003  5992 net.cpp:395] relu5_2 -> conv5_2 (in-place)
I0510 06:37:49.792136  5992 net.cpp:150] Setting up relu5_2
I0510 06:37:49.792145  5992 net.cpp:157] Top shape: 1 512 45 45 (1036800)
I0510 06:37:49.792148  5992 net.cpp:165] Memory required for data: 1180728576
I0510 06:37:49.792152  5992 layer_factory.hpp:77] Creating layer conv5_3
I0510 06:37:49.792160  5992 net.cpp:100] Creating Layer conv5_3
I0510 06:37:49.792165  5992 net.cpp:434] conv5_3 <- conv5_2
I0510 06:37:49.792171  5992 net.cpp:408] conv5_3 -> conv5_3
I0510 06:37:49.797441  5992 net.cpp:150] Setting up conv5_3
I0510 06:37:49.797466  5992 net.cpp:157] Top shape: 1 512 45 45 (1036800)
I0510 06:37:49.797472  5992 net.cpp:165] Memory required for data: 1184875776
I0510 06:37:49.797479  5992 layer_factory.hpp:77] Creating layer relu5_3
I0510 06:37:49.797488  5992 net.cpp:100] Creating Layer relu5_3
I0510 06:37:49.797493  5992 net.cpp:434] relu5_3 <- conv5_3
I0510 06:37:49.797500  5992 net.cpp:395] relu5_3 -> conv5_3 (in-place)
I0510 06:37:49.797742  5992 net.cpp:150] Setting up relu5_3
I0510 06:37:49.797752  5992 net.cpp:157] Top shape: 1 512 45 45 (1036800)
I0510 06:37:49.797756  5992 net.cpp:165] Memory required for data: 1189022976
I0510 06:37:49.797760  5992 layer_factory.hpp:77] Creating layer pool5
I0510 06:37:49.797766  5992 net.cpp:100] Creating Layer pool5
I0510 06:37:49.797770  5992 net.cpp:434] pool5 <- conv5_3
I0510 06:37:49.797776  5992 net.cpp:408] pool5 -> pool5
I0510 06:37:49.797813  5992 net.cpp:150] Setting up pool5
I0510 06:37:49.797819  5992 net.cpp:157] Top shape: 1 512 23 23 (270848)
I0510 06:37:49.797822  5992 net.cpp:165] Memory required for data: 1190106368
I0510 06:37:49.797825  5992 layer_factory.hpp:77] Creating layer fc6
I0510 06:37:49.797834  5992 net.cpp:100] Creating Layer fc6
I0510 06:37:49.797838  5992 net.cpp:434] fc6 <- pool5
I0510 06:37:49.797843  5992 net.cpp:408] fc6 -> fc6
I0510 06:37:50.013409  5992 net.cpp:150] Setting up fc6
I0510 06:37:50.013440  5992 net.cpp:157] Top shape: 1 4096 17 17 (1183744)
I0510 06:37:50.013443  5992 net.cpp:165] Memory required for data: 1194841344
I0510 06:37:50.013451  5992 layer_factory.hpp:77] Creating layer relu6
I0510 06:37:50.013460  5992 net.cpp:100] Creating Layer relu6
I0510 06:37:50.013465  5992 net.cpp:434] relu6 <- fc6
I0510 06:37:50.013473  5992 net.cpp:395] relu6 -> fc6 (in-place)
I0510 06:37:50.013604  5992 net.cpp:150] Setting up relu6
I0510 06:37:50.013612  5992 net.cpp:157] Top shape: 1 4096 17 17 (1183744)
I0510 06:37:50.013620  5992 net.cpp:165] Memory required for data: 1199576320
I0510 06:37:50.013623  5992 layer_factory.hpp:77] Creating layer drop6
I0510 06:37:50.013631  5992 net.cpp:100] Creating Layer drop6
I0510 06:37:50.013635  5992 net.cpp:434] drop6 <- fc6
I0510 06:37:50.013640  5992 net.cpp:395] drop6 -> fc6 (in-place)
I0510 06:37:50.013664  5992 net.cpp:150] Setting up drop6
I0510 06:37:50.013669  5992 net.cpp:157] Top shape: 1 4096 17 17 (1183744)
I0510 06:37:50.013672  5992 net.cpp:165] Memory required for data: 1204311296
I0510 06:37:50.013675  5992 layer_factory.hpp:77] Creating layer fc7
I0510 06:37:50.013684  5992 net.cpp:100] Creating Layer fc7
I0510 06:37:50.013687  5992 net.cpp:434] fc7 <- fc6
I0510 06:37:50.013691  5992 net.cpp:408] fc7 -> fc7
I0510 06:37:50.050263  5992 net.cpp:150] Setting up fc7
I0510 06:37:50.050292  5992 net.cpp:157] Top shape: 1 4096 17 17 (1183744)
I0510 06:37:50.050295  5992 net.cpp:165] Memory required for data: 1209046272
I0510 06:37:50.050303  5992 layer_factory.hpp:77] Creating layer relu7
I0510 06:37:50.050312  5992 net.cpp:100] Creating Layer relu7
I0510 06:37:50.050317  5992 net.cpp:434] relu7 <- fc7
I0510 06:37:50.050323  5992 net.cpp:395] relu7 -> fc7 (in-place)
I0510 06:37:50.050465  5992 net.cpp:150] Setting up relu7
I0510 06:37:50.050472  5992 net.cpp:157] Top shape: 1 4096 17 17 (1183744)
I0510 06:37:50.050475  5992 net.cpp:165] Memory required for data: 1213781248
I0510 06:37:50.050478  5992 layer_factory.hpp:77] Creating layer drop7
I0510 06:37:50.050484  5992 net.cpp:100] Creating Layer drop7
I0510 06:37:50.050488  5992 net.cpp:434] drop7 <- fc7
I0510 06:37:50.050493  5992 net.cpp:395] drop7 -> fc7 (in-place)
I0510 06:37:50.050514  5992 net.cpp:150] Setting up drop7
I0510 06:37:50.050520  5992 net.cpp:157] Top shape: 1 4096 17 17 (1183744)
I0510 06:37:50.050523  5992 net.cpp:165] Memory required for data: 1218516224
I0510 06:37:50.050526  5992 layer_factory.hpp:77] Creating layer score_fr
I0510 06:37:50.050534  5992 net.cpp:100] Creating Layer score_fr
I0510 06:37:50.050537  5992 net.cpp:434] score_fr <- fc7
I0510 06:37:50.050544  5992 net.cpp:408] score_fr -> score_fr
I0510 06:37:50.051396  5992 net.cpp:150] Setting up score_fr
I0510 06:37:50.051407  5992 net.cpp:157] Top shape: 1 2 17 17 (578)
I0510 06:37:50.051410  5992 net.cpp:165] Memory required for data: 1218518536
I0510 06:37:50.051416  5992 layer_factory.hpp:77] Creating layer upscore2
I0510 06:37:50.051426  5992 net.cpp:100] Creating Layer upscore2
I0510 06:37:50.051429  5992 net.cpp:434] upscore2 <- score_fr
I0510 06:37:50.051435  5992 net.cpp:408] upscore2 -> upscore2
I0510 06:37:50.051581  5992 net.cpp:150] Setting up upscore2
I0510 06:37:50.051587  5992 net.cpp:157] Top shape: 1 2 36 36 (2592)
I0510 06:37:50.051591  5992 net.cpp:165] Memory required for data: 1218528904
I0510 06:37:50.051600  5992 layer_factory.hpp:77] Creating layer upscore2_upscore2_0_split
I0510 06:37:50.051605  5992 net.cpp:100] Creating Layer upscore2_upscore2_0_split
I0510 06:37:50.051609  5992 net.cpp:434] upscore2_upscore2_0_split <- upscore2
I0510 06:37:50.051612  5992 net.cpp:408] upscore2_upscore2_0_split -> upscore2_upscore2_0_split_0
I0510 06:37:50.051621  5992 net.cpp:408] upscore2_upscore2_0_split -> upscore2_upscore2_0_split_1
I0510 06:37:50.051648  5992 net.cpp:150] Setting up upscore2_upscore2_0_split
I0510 06:37:50.051654  5992 net.cpp:157] Top shape: 1 2 36 36 (2592)
I0510 06:37:50.051657  5992 net.cpp:157] Top shape: 1 2 36 36 (2592)
I0510 06:37:50.051661  5992 net.cpp:165] Memory required for data: 1218549640
I0510 06:37:50.051663  5992 layer_factory.hpp:77] Creating layer score_pool4
I0510 06:37:50.051671  5992 net.cpp:100] Creating Layer score_pool4
I0510 06:37:50.051674  5992 net.cpp:434] score_pool4 <- pool4_pool4_0_split_1
I0510 06:37:50.051679  5992 net.cpp:408] score_pool4 -> score_pool4
I0510 06:37:50.052434  5992 net.cpp:150] Setting up score_pool4
I0510 06:37:50.052444  5992 net.cpp:157] Top shape: 1 2 45 45 (4050)
I0510 06:37:50.052448  5992 net.cpp:165] Memory required for data: 1218565840
I0510 06:37:50.052459  5992 layer_factory.hpp:77] Creating layer score_pool4c
I0510 06:37:50.052469  5992 net.cpp:100] Creating Layer score_pool4c
I0510 06:37:50.052471  5992 net.cpp:434] score_pool4c <- score_pool4
I0510 06:37:50.052476  5992 net.cpp:434] score_pool4c <- upscore2_upscore2_0_split_0
I0510 06:37:50.052480  5992 net.cpp:408] score_pool4c -> score_pool4c
I0510 06:37:50.052507  5992 net.cpp:150] Setting up score_pool4c
I0510 06:37:50.052513  5992 net.cpp:157] Top shape: 1 2 36 36 (2592)
I0510 06:37:50.052516  5992 net.cpp:165] Memory required for data: 1218576208
I0510 06:37:50.052520  5992 layer_factory.hpp:77] Creating layer fuse_pool4
I0510 06:37:50.052525  5992 net.cpp:100] Creating Layer fuse_pool4
I0510 06:37:50.052530  5992 net.cpp:434] fuse_pool4 <- upscore2_upscore2_0_split_1
I0510 06:37:50.052532  5992 net.cpp:434] fuse_pool4 <- score_pool4c
I0510 06:37:50.052537  5992 net.cpp:408] fuse_pool4 -> fuse_pool4
I0510 06:37:50.052558  5992 net.cpp:150] Setting up fuse_pool4
I0510 06:37:50.052563  5992 net.cpp:157] Top shape: 1 2 36 36 (2592)
I0510 06:37:50.052567  5992 net.cpp:165] Memory required for data: 1218586576
I0510 06:37:50.052569  5992 layer_factory.hpp:77] Creating layer upscore_pool4
I0510 06:37:50.052575  5992 net.cpp:100] Creating Layer upscore_pool4
I0510 06:37:50.052579  5992 net.cpp:434] upscore_pool4 <- fuse_pool4
I0510 06:37:50.052584  5992 net.cpp:408] upscore_pool4 -> upscore_pool4
I0510 06:37:50.052721  5992 net.cpp:150] Setting up upscore_pool4
I0510 06:37:50.052726  5992 net.cpp:157] Top shape: 1 2 74 74 (10952)
I0510 06:37:50.052729  5992 net.cpp:165] Memory required for data: 1218630384
I0510 06:37:50.052734  5992 layer_factory.hpp:77] Creating layer upscore_pool4_upscore_pool4_0_split
I0510 06:37:50.052738  5992 net.cpp:100] Creating Layer upscore_pool4_upscore_pool4_0_split
I0510 06:37:50.052742  5992 net.cpp:434] upscore_pool4_upscore_pool4_0_split <- upscore_pool4
I0510 06:37:50.052745  5992 net.cpp:408] upscore_pool4_upscore_pool4_0_split -> upscore_pool4_upscore_pool4_0_split_0
I0510 06:37:50.052752  5992 net.cpp:408] upscore_pool4_upscore_pool4_0_split -> upscore_pool4_upscore_pool4_0_split_1
I0510 06:37:50.052778  5992 net.cpp:150] Setting up upscore_pool4_upscore_pool4_0_split
I0510 06:37:50.052783  5992 net.cpp:157] Top shape: 1 2 74 74 (10952)
I0510 06:37:50.052785  5992 net.cpp:157] Top shape: 1 2 74 74 (10952)
I0510 06:37:50.052788  5992 net.cpp:165] Memory required for data: 1218718000
I0510 06:37:50.052791  5992 layer_factory.hpp:77] Creating layer score_pool3
I0510 06:37:50.052799  5992 net.cpp:100] Creating Layer score_pool3
I0510 06:37:50.052803  5992 net.cpp:434] score_pool3 <- pool3_pool3_0_split_1
I0510 06:37:50.052809  5992 net.cpp:408] score_pool3 -> score_pool3
I0510 06:37:50.053563  5992 net.cpp:150] Setting up score_pool3
I0510 06:37:50.053573  5992 net.cpp:157] Top shape: 1 2 89 89 (15842)
I0510 06:37:50.053576  5992 net.cpp:165] Memory required for data: 1218781368
I0510 06:37:50.053582  5992 layer_factory.hpp:77] Creating layer score_pool3c
I0510 06:37:50.053589  5992 net.cpp:100] Creating Layer score_pool3c
I0510 06:37:50.053592  5992 net.cpp:434] score_pool3c <- score_pool3
I0510 06:37:50.053597  5992 net.cpp:434] score_pool3c <- upscore_pool4_upscore_pool4_0_split_0
I0510 06:37:50.053601  5992 net.cpp:408] score_pool3c -> score_pool3c
I0510 06:37:50.053624  5992 net.cpp:150] Setting up score_pool3c
I0510 06:37:50.053629  5992 net.cpp:157] Top shape: 1 2 74 74 (10952)
I0510 06:37:50.053632  5992 net.cpp:165] Memory required for data: 1218825176
I0510 06:37:50.053635  5992 layer_factory.hpp:77] Creating layer fuse_pool3
I0510 06:37:50.053640  5992 net.cpp:100] Creating Layer fuse_pool3
I0510 06:37:50.053643  5992 net.cpp:434] fuse_pool3 <- upscore_pool4_upscore_pool4_0_split_1
I0510 06:37:50.053647  5992 net.cpp:434] fuse_pool3 <- score_pool3c
I0510 06:37:50.053653  5992 net.cpp:408] fuse_pool3 -> fuse_pool3
I0510 06:37:50.053670  5992 net.cpp:150] Setting up fuse_pool3
I0510 06:37:50.053674  5992 net.cpp:157] Top shape: 1 2 74 74 (10952)
I0510 06:37:50.053681  5992 net.cpp:165] Memory required for data: 1218868984
I0510 06:37:50.053684  5992 layer_factory.hpp:77] Creating layer upscore8
I0510 06:37:50.053690  5992 net.cpp:100] Creating Layer upscore8
I0510 06:37:50.053694  5992 net.cpp:434] upscore8 <- fuse_pool3
I0510 06:37:50.053699  5992 net.cpp:408] upscore8 -> upscore8
I0510 06:37:50.053834  5992 net.cpp:150] Setting up upscore8
I0510 06:37:50.053839  5992 net.cpp:157] Top shape: 1 2 600 600 (720000)
I0510 06:37:50.053843  5992 net.cpp:165] Memory required for data: 1221748984
I0510 06:37:50.053848  5992 layer_factory.hpp:77] Creating layer score
I0510 06:37:50.053851  5992 net.cpp:100] Creating Layer score
I0510 06:37:50.053854  5992 net.cpp:434] score <- upscore8
I0510 06:37:50.053858  5992 net.cpp:434] score <- data_data_0_split_1
I0510 06:37:50.053863  5992 net.cpp:408] score -> score
I0510 06:37:50.053881  5992 net.cpp:150] Setting up score
I0510 06:37:50.053886  5992 net.cpp:157] Top shape: 1 2 512 512 (524288)
I0510 06:37:50.053889  5992 net.cpp:165] Memory required for data: 1223846136
I0510 06:37:50.053892  5992 layer_factory.hpp:77] Creating layer score_score_0_split
I0510 06:37:50.053896  5992 net.cpp:100] Creating Layer score_score_0_split
I0510 06:37:50.053900  5992 net.cpp:434] score_score_0_split <- score
I0510 06:37:50.053903  5992 net.cpp:408] score_score_0_split -> score_score_0_split_0
I0510 06:37:50.053908  5992 net.cpp:408] score_score_0_split -> score_score_0_split_1
I0510 06:37:50.053936  5992 net.cpp:150] Setting up score_score_0_split
I0510 06:37:50.053939  5992 net.cpp:157] Top shape: 1 2 512 512 (524288)
I0510 06:37:50.053943  5992 net.cpp:157] Top shape: 1 2 512 512 (524288)
I0510 06:37:50.053946  5992 net.cpp:165] Memory required for data: 1228040440
I0510 06:37:50.053949  5992 layer_factory.hpp:77] Creating layer loss
I0510 06:37:50.053956  5992 net.cpp:100] Creating Layer loss
I0510 06:37:50.053959  5992 net.cpp:434] loss <- score_score_0_split_0
I0510 06:37:50.053962  5992 net.cpp:434] loss <- label_data_1_split_0
I0510 06:37:50.053966  5992 net.cpp:408] loss -> loss
I0510 06:37:50.053975  5992 layer_factory.hpp:77] Creating layer loss
I0510 06:37:50.054873  5992 net.cpp:150] Setting up loss
I0510 06:37:50.054883  5992 net.cpp:157] Top shape: (1)
I0510 06:37:50.054886  5992 net.cpp:160]     with loss weight 1
I0510 06:37:50.054899  5992 net.cpp:165] Memory required for data: 1228040444
I0510 06:37:50.054903  5992 layer_factory.hpp:77] Creating layer dice
I0510 06:37:50.055073  5992 net.cpp:100] Creating Layer dice
I0510 06:37:50.055081  5992 net.cpp:434] dice <- score_score_0_split_1
I0510 06:37:50.055086  5992 net.cpp:434] dice <- label_data_1_split_1
I0510 06:37:50.055091  5992 net.cpp:408] dice -> dice
I0510 06:37:50.055682  5992 net.cpp:150] Setting up dice
I0510 06:37:50.055692  5992 net.cpp:157] Top shape: 1 (1)
I0510 06:37:50.055696  5992 net.cpp:165] Memory required for data: 1228040448
I0510 06:37:50.055701  5992 net.cpp:228] dice does not need backward computation.
I0510 06:37:50.055704  5992 net.cpp:226] loss needs backward computation.
I0510 06:37:50.055707  5992 net.cpp:226] score_score_0_split needs backward computation.
I0510 06:37:50.055711  5992 net.cpp:226] score needs backward computation.
…
