…
I0425 19:38:06.198884 10155 solver.cpp:81] Creating training net from train_net file: train.prototxt
I0425 19:38:06.199561 10155 net.cpp:358] The NetState did not contain stage 'deploy' specified by a rule in layer dice
I0425 19:38:06.199739 10155 net.cpp:58] Initializing net from parameters: 
state {
  phase: TRAIN
}
layer {
  name: "data"
  type: "Python"
  top: "data"
  top: "label"
  python_param {
    module: "voc_layers"
    layer: "VOCSegDataLayer"
    param_str: "{\'voc_dir\': \'/home/zeven/caffe/examples/fcn/CT-fcn32s/CTData\', \'seed\': 1337, \'split\': \'train\', \'mean\': (166.93918, 166.93918, 166.93918)}"
  }
}
layer {
  name: "conv1_1"
  type: "Convolution"
  bottom: "data"
  top: "conv1_1"
  param {
    lr_mult: 1
    decay_mult: 1
  }
  param {
    lr_mult: 2
    decay_mult: 0
  }
  convolution_param {
    num_output: 64
    pad: 100
    kernel_size: 3
    stride: 1
  }
}
layer {
  name: "relu1_1"
  type: "ReLU"
  bottom: "conv1_1"
  top: "conv1_1"
}
layer {
  name: "conv1_2"
  type: "Convolution"
  bottom: "conv1_1"
  top: "conv1_2"
  param {
    lr_mult: 1
    decay_mult: 1
  }
  param {
    lr_mult: 2
    decay_mult: 0
  }
  convolution_param {
    num_output: 64
    pad: 1
    kernel_size: 3
    stride: 1
  }
}
layer {
  name: "relu1_2"
  type: "ReLU"
  bottom: "conv1_2"
  top: "conv1_2"
}
layer {
  name: "pool1"
  type: "Pooling"
  bottom: "conv1_2"
  top: "pool1"
  pooling_param {
    pool: MAX
    kernel_size: 2
    stride: 2
  }
}
layer {
  name: "conv2_1"
  type: "Convolution"
  bottom: "pool1"
  top: "conv2_1"
  param {
    lr_mult: 1
    decay_mult: 1
  }
  param {
    lr_mult: 2
    decay_mult: 0
  }
  convolution_param {
    num_output: 128
    pad: 1
    kernel_size: 3
    stride: 1
  }
}
layer {
  name: "relu2_1"
  type: "ReLU"
  bottom: "conv2_1"
  top: "conv2_1"
}
layer {
  name: "conv2_2"
  type: "Convolution"
  bottom: "conv2_1"
  top: "conv2_2"
  param {
    lr_mult: 1
    decay_mult: 1
  }
  param {
    lr_mult: 2
    decay_mult: 0
  }
  convolution_param {
    num_output: 128
    pad: 1
    kernel_size: 3
    stride: 1
  }
}
layer {
  name: "relu2_2"
  type: "ReLU"
  bottom: "conv2_2"
  top: "conv2_2"
}
layer {
  name: "pool2"
  type: "Pooling"
  bottom: "conv2_2"
  top: "pool2"
  pooling_param {
    pool: MAX
    kernel_size: 2
    stride: 2
  }
}
layer {
  name: "conv3_1"
  type: "Convolution"
  bottom: "pool2"
  top: "conv3_1"
  param {
    lr_mult: 1
    decay_mult: 1
  }
  param {
    lr_mult: 2
    decay_mult: 0
  }
  convolution_param {
    num_output: 256
    pad: 1
    kernel_size: 3
    stride: 1
  }
}
layer {
  name: "relu3_1"
  type: "ReLU"
  bottom: "conv3_1"
  top: "conv3_1"
}
layer {
  name: "conv3_2"
  type: "Convolution"
  bottom: "conv3_1"
  top: "conv3_2"
  param {
    lr_mult: 1
    decay_mult: 1
  }
  param {
    lr_mult: 2
    decay_mult: 0
  }
  convolution_param {
    num_output: 256
    pad: 1
    kernel_size: 3
    stride: 1
  }
}
layer {
  name: "relu3_2"
  type: "ReLU"
  bottom: "conv3_2"
  top: "conv3_2"
}
layer {
  name: "conv3_3"
  type: "Convolution"
  bottom: "conv3_2"
  top: "conv3_3"
  param {
    lr_mult: 1
    decay_mult: 1
  }
  param {
    lr_mult: 2
    decay_mult: 0
  }
  convolution_param {
    num_output: 256
    pad: 1
    kernel_size: 3
    stride: 1
  }
}
layer {
  name: "relu3_3"
  type: "ReLU"
  bottom: "conv3_3"
  top: "conv3_3"
}
layer {
  name: "pool3"
  type: "Pooling"
  bottom: "conv3_3"
  top: "pool3"
  pooling_param {
    pool: MAX
    kernel_size: 2
    stride: 2
  }
}
layer {
  name: "conv4_1"
  type: "Convolution"
  bottom: "pool3"
  top: "conv4_1"
  param {
    lr_mult: 1
    decay_mult: 1
  }
  param {
    lr_mult: 2
    decay_mult: 0
  }
  convolution_param {
    num_output: 512
    pad: 1
    kernel_size: 3
    stride: 1
  }
}
layer {
  name: "relu4_1"
  type: "ReLU"
  bottom: "conv4_1"
  top: "conv4_1"
}
layer {
  name: "conv4_2"
  type: "Convolution"
  bottom: "conv4_1"
  top: "conv4_2"
  param {
    lr_mult: 1
    decay_mult: 1
  }
  param {
    lr_mult: 2
    decay_mult: 0
  }
  convolution_param {
    num_output: 512
    pad: 1
    kernel_size: 3
    stride: 1
  }
}
layer {
  name: "relu4_2"
  type: "ReLU"
  bottom: "conv4_2"
  top: "conv4_2"
}
layer {
  name: "conv4_3"
  type: "Convolution"
  bottom: "conv4_2"
  top: "conv4_3"
  param {
    lr_mult: 1
    decay_mult: 1
  }
  param {
    lr_mult: 2
    decay_mult: 0
  }
  convolution_param {
    num_output: 512
    pad: 1
    kernel_size: 3
    stride: 1
  }
}
layer {
  name: "relu4_3"
  type: "ReLU"
  bottom: "conv4_3"
  top: "conv4_3"
}
layer {
  name: "pool4"
  type: "Pooling"
  bottom: "conv4_3"
  top: "pool4"
  pooling_param {
    pool: MAX
    kernel_size: 2
    stride: 2
  }
}
layer {
  name: "conv5_1"
  type: "Convolution"
  bottom: "pool4"
  top: "conv5_1"
  param {
    lr_mult: 1
    decay_mult: 1
  }
  param {
    lr_mult: 2
    decay_mult: 0
  }
  convolution_param {
    num_output: 512
    pad: 1
    kernel_size: 3
    stride: 1
  }
}
layer {
  name: "relu5_1"
  type: "ReLU"
  bottom: "conv5_1"
  top: "conv5_1"
}
layer {
  name: "conv5_2"
  type: "Convolution"
  bottom: "conv5_1"
  top: "conv5_2"
  param {
    lr_mult: 1
    decay_mult: 1
  }
  param {
    lr_mult: 2
    decay_mult: 0
  }
  convolution_param {
    num_output: 512
    pad: 1
    kernel_size: 3
    stride: 1
  }
}
layer {
  name: "relu5_2"
  type: "ReLU"
  bottom: "conv5_2"
  top: "conv5_2"
}
layer {
  name: "conv5_3"
  type: "Convolution"
  bottom: "conv5_2"
  top: "conv5_3"
  param {
    lr_mult: 1
    decay_mult: 1
  }
  param {
    lr_mult: 2
    decay_mult: 0
  }
  convolution_param {
    num_output: 512
    pad: 1
    kernel_size: 3
    stride: 1
  }
}
layer {
  name: "relu5_3"
  type: "ReLU"
  bottom: "conv5_3"
  top: "conv5_3"
}
layer {
  name: "pool5"
  type: "Pooling"
  bottom: "conv5_3"
  top: "pool5"
  pooling_param {
    pool: MAX
    kernel_size: 2
    stride: 2
  }
}
layer {
  name: "fc6"
  type: "Convolution"
  bottom: "pool5"
  top: "fc6"
  param {
    lr_mult: 1
    decay_mult: 1
  }
  param {
    lr_mult: 2
    decay_mult: 0
  }
  convolution_param {
    num_output: 4096
    pad: 0
    kernel_size: 7
    stride: 1
  }
}
layer {
  name: "relu6"
  type: "ReLU"
  bottom: "fc6"
  top: "fc6"
}
layer {
  name: "drop6"
  type: "Dropout"
  bottom: "fc6"
  top: "fc6"
  dropout_param {
    dropout_ratio: 0.5
  }
}
layer {
  name: "fc7"
  type: "Convolution"
  bottom: "fc6"
  top: "fc7"
  param {
    lr_mult: 1
    decay_mult: 1
  }
  param {
    lr_mult: 2
    decay_mult: 0
  }
  convolution_param {
    num_output: 4096
    pad: 0
    kernel_size: 1
    stride: 1
  }
}
layer {
  name: "relu7"
  type: "ReLU"
  bottom: "fc7"
  top: "fc7"
}
layer {
  name: "drop7"
  type: "Dropout"
  bottom: "fc7"
  top: "fc7"
  dropout_param {
    dropout_ratio: 0.5
  }
}
layer {
  name: "score_fr"
  type: "Convolution"
  bottom: "fc7"
  top: "score_fr"
  param {
    lr_mult: 1
    decay_mult: 1
  }
  param {
    lr_mult: 2
    decay_mult: 0
  }
  convolution_param {
    num_output: 2
    pad: 0
    kernel_size: 1
  }
}
layer {
  name: "upscore2"
  type: "Deconvolution"
  bottom: "score_fr"
  top: "upscore2"
  param {
    lr_mult: 0
  }
  convolution_param {
    num_output: 2
    bias_term: false
    kernel_size: 4
    stride: 2
  }
}
layer {
  name: "score_pool4"
  type: "Convolution"
  bottom: "pool4"
  top: "score_pool4"
  param {
    lr_mult: 1
    decay_mult: 1
  }
  param {
    lr_mult: 2
    decay_mult: 0
  }
  convolution_param {
    num_output: 2
    pad: 0
    kernel_size: 1
  }
}
layer {
  name: "score_pool4c"
  type: "Crop"
  bottom: "score_pool4"
  bottom: "upscore2"
  top: "score_pool4c"
  crop_param {
    axis: 2
    offset: 5
  }
}
layer {
  name: "fuse_pool4"
  type: "Eltwise"
  bottom: "upscore2"
  bottom: "score_pool4c"
  top: "fuse_pool4"
  eltwise_param {
    operation: SUM
  }
}
layer {
  name: "upscore_pool4"
  type: "Deconvolution"
  bottom: "fuse_pool4"
  top: "upscore_pool4"
  param {
    lr_mult: 0
  }
  convolution_param {
    num_output: 2
    bias_term: false
    kernel_size: 4
    stride: 2
  }
}
layer {
  name: "score_pool3"
  type: "Convolution"
  bottom: "pool3"
  top: "score_pool3"
  param {
    lr_mult: 1
    decay_mult: 1
  }
  param {
    lr_mult: 2
    decay_mult: 0
  }
  convolution_param {
    num_output: 2
    pad: 0
    kernel_size: 1
  }
}
layer {
  name: "score_pool3c"
  type: "Crop"
  bottom: "score_pool3"
  bottom: "upscore_pool4"
  top: "score_pool3c"
  crop_param {
    axis: 2
    offset: 9
  }
}
layer {
  name: "fuse_pool3"
  type: "Eltwise"
  bottom: "upscore_pool4"
  bottom: "score_pool3c"
  top: "fuse_pool3"
  eltwise_param {
    operation: SUM
  }
}
layer {
  name: "upscore8"
  type: "Deconvolution"
  bottom: "fuse_pool3"
  top: "upscore8"
  param {
    lr_mult: 0
  }
  convolution_param {
    num_output: 2
    bias_term: false
    kernel_size: 16
    stride: 8
  }
}
layer {
  name: "score"
  type: "Crop"
  bottom: "upscore8"
  bottom: "data"
  top: "score"
  crop_param {
    axis: 2
    offset: 31
  }
}
layer {
  name: "loss"
  type: "SoftmaxWithLoss"
  bottom: "score"
  bottom: "label"
  top: "loss"
  loss_param {
    ignore_label: 255
    normalize: false
  }
}
layer {
  name: "dice"
  type: "Python"
  bottom: "score"
  bottom: "label"
  top: "dice"
  exclude {
    stage: "deploy"
  }
  python_param {
    module: "dice"
    layer: "Dice"
  }
}
I0425 19:38:06.199904 10155 layer_factory.hpp:77] Creating layer data
I0425 19:38:06.200184 10155 net.cpp:100] Creating Layer data
I0425 19:38:06.200197 10155 net.cpp:408] data -> data
I0425 19:38:06.200209 10155 net.cpp:408] data -> label
I0425 19:38:06.991619 10155 net.cpp:150] Setting up data
I0425 19:38:06.991658 10155 net.cpp:157] Top shape: 1 3 100 100 (30000)
I0425 19:38:06.991664 10155 net.cpp:157] Top shape: 1 1 100 100 (10000)
I0425 19:38:06.991668 10155 net.cpp:165] Memory required for data: 160000
I0425 19:38:06.991675 10155 layer_factory.hpp:77] Creating layer data_data_0_split
I0425 19:38:06.991688 10155 net.cpp:100] Creating Layer data_data_0_split
I0425 19:38:06.991693 10155 net.cpp:434] data_data_0_split <- data
I0425 19:38:06.991703 10155 net.cpp:408] data_data_0_split -> data_data_0_split_0
I0425 19:38:06.991713 10155 net.cpp:408] data_data_0_split -> data_data_0_split_1
I0425 19:38:06.991737 10155 net.cpp:150] Setting up data_data_0_split
I0425 19:38:06.991742 10155 net.cpp:157] Top shape: 1 3 100 100 (30000)
I0425 19:38:06.991747 10155 net.cpp:157] Top shape: 1 3 100 100 (30000)
I0425 19:38:06.991750 10155 net.cpp:165] Memory required for data: 400000
I0425 19:38:06.991753 10155 layer_factory.hpp:77] Creating layer label_data_1_split
I0425 19:38:06.991758 10155 net.cpp:100] Creating Layer label_data_1_split
I0425 19:38:06.991762 10155 net.cpp:434] label_data_1_split <- label
I0425 19:38:06.991766 10155 net.cpp:408] label_data_1_split -> label_data_1_split_0
I0425 19:38:06.991771 10155 net.cpp:408] label_data_1_split -> label_data_1_split_1
I0425 19:38:06.991791 10155 net.cpp:150] Setting up label_data_1_split
I0425 19:38:06.991796 10155 net.cpp:157] Top shape: 1 1 100 100 (10000)
I0425 19:38:06.991799 10155 net.cpp:157] Top shape: 1 1 100 100 (10000)
I0425 19:38:06.991803 10155 net.cpp:165] Memory required for data: 480000
I0425 19:38:06.991806 10155 layer_factory.hpp:77] Creating layer conv1_1
I0425 19:38:06.991817 10155 net.cpp:100] Creating Layer conv1_1
I0425 19:38:06.991822 10155 net.cpp:434] conv1_1 <- data_data_0_split_0
I0425 19:38:06.991827 10155 net.cpp:408] conv1_1 -> conv1_1
I0425 19:38:07.633491 10155 net.cpp:150] Setting up conv1_1
I0425 19:38:07.633522 10155 net.cpp:157] Top shape: 1 64 298 298 (5683456)
I0425 19:38:07.633527 10155 net.cpp:165] Memory required for data: 23213824
I0425 19:38:07.633544 10155 layer_factory.hpp:77] Creating layer relu1_1
I0425 19:38:07.633563 10155 net.cpp:100] Creating Layer relu1_1
I0425 19:38:07.633568 10155 net.cpp:434] relu1_1 <- conv1_1
I0425 19:38:07.633574 10155 net.cpp:395] relu1_1 -> conv1_1 (in-place)
I0425 19:38:07.633785 10155 net.cpp:150] Setting up relu1_1
I0425 19:38:07.633795 10155 net.cpp:157] Top shape: 1 64 298 298 (5683456)
I0425 19:38:07.633797 10155 net.cpp:165] Memory required for data: 45947648
I0425 19:38:07.633801 10155 layer_factory.hpp:77] Creating layer conv1_2
I0425 19:38:07.633811 10155 net.cpp:100] Creating Layer conv1_2
I0425 19:38:07.633816 10155 net.cpp:434] conv1_2 <- conv1_1
I0425 19:38:07.633821 10155 net.cpp:408] conv1_2 -> conv1_2
I0425 19:38:07.634904 10155 net.cpp:150] Setting up conv1_2
I0425 19:38:07.634915 10155 net.cpp:157] Top shape: 1 64 298 298 (5683456)
I0425 19:38:07.634919 10155 net.cpp:165] Memory required for data: 68681472
I0425 19:38:07.634927 10155 layer_factory.hpp:77] Creating layer relu1_2
I0425 19:38:07.634943 10155 net.cpp:100] Creating Layer relu1_2
I0425 19:38:07.634946 10155 net.cpp:434] relu1_2 <- conv1_2
I0425 19:38:07.634951 10155 net.cpp:395] relu1_2 -> conv1_2 (in-place)
I0425 19:38:07.635077 10155 net.cpp:150] Setting up relu1_2
I0425 19:38:07.635084 10155 net.cpp:157] Top shape: 1 64 298 298 (5683456)
I0425 19:38:07.635088 10155 net.cpp:165] Memory required for data: 91415296
I0425 19:38:07.635092 10155 layer_factory.hpp:77] Creating layer pool1
I0425 19:38:07.635099 10155 net.cpp:100] Creating Layer pool1
I0425 19:38:07.635103 10155 net.cpp:434] pool1 <- conv1_2
I0425 19:38:07.635108 10155 net.cpp:408] pool1 -> pool1
I0425 19:38:07.635143 10155 net.cpp:150] Setting up pool1
I0425 19:38:07.635149 10155 net.cpp:157] Top shape: 1 64 149 149 (1420864)
I0425 19:38:07.635152 10155 net.cpp:165] Memory required for data: 97098752
I0425 19:38:07.635155 10155 layer_factory.hpp:77] Creating layer conv2_1
I0425 19:38:07.635164 10155 net.cpp:100] Creating Layer conv2_1
I0425 19:38:07.635167 10155 net.cpp:434] conv2_1 <- pool1
I0425 19:38:07.635174 10155 net.cpp:408] conv2_1 -> conv2_1
I0425 19:38:07.635993 10155 net.cpp:150] Setting up conv2_1
I0425 19:38:07.636004 10155 net.cpp:157] Top shape: 1 128 149 149 (2841728)
I0425 19:38:07.636008 10155 net.cpp:165] Memory required for data: 108465664
I0425 19:38:07.636015 10155 layer_factory.hpp:77] Creating layer relu2_1
I0425 19:38:07.636021 10155 net.cpp:100] Creating Layer relu2_1
I0425 19:38:07.636025 10155 net.cpp:434] relu2_1 <- conv2_1
I0425 19:38:07.636031 10155 net.cpp:395] relu2_1 -> conv2_1 (in-place)
I0425 19:38:07.636154 10155 net.cpp:150] Setting up relu2_1
I0425 19:38:07.636162 10155 net.cpp:157] Top shape: 1 128 149 149 (2841728)
I0425 19:38:07.636165 10155 net.cpp:165] Memory required for data: 119832576
I0425 19:38:07.636169 10155 layer_factory.hpp:77] Creating layer conv2_2
I0425 19:38:07.636176 10155 net.cpp:100] Creating Layer conv2_2
I0425 19:38:07.636180 10155 net.cpp:434] conv2_2 <- conv2_1
I0425 19:38:07.636188 10155 net.cpp:408] conv2_2 -> conv2_2
I0425 19:38:07.637298 10155 net.cpp:150] Setting up conv2_2
I0425 19:38:07.637310 10155 net.cpp:157] Top shape: 1 128 149 149 (2841728)
I0425 19:38:07.637313 10155 net.cpp:165] Memory required for data: 131199488
I0425 19:38:07.637320 10155 layer_factory.hpp:77] Creating layer relu2_2
I0425 19:38:07.637326 10155 net.cpp:100] Creating Layer relu2_2
I0425 19:38:07.637329 10155 net.cpp:434] relu2_2 <- conv2_2
I0425 19:38:07.637334 10155 net.cpp:395] relu2_2 -> conv2_2 (in-place)
I0425 19:38:07.637547 10155 net.cpp:150] Setting up relu2_2
I0425 19:38:07.637557 10155 net.cpp:157] Top shape: 1 128 149 149 (2841728)
I0425 19:38:07.637560 10155 net.cpp:165] Memory required for data: 142566400
I0425 19:38:07.637564 10155 layer_factory.hpp:77] Creating layer pool2
I0425 19:38:07.637570 10155 net.cpp:100] Creating Layer pool2
I0425 19:38:07.637573 10155 net.cpp:434] pool2 <- conv2_2
I0425 19:38:07.637579 10155 net.cpp:408] pool2 -> pool2
I0425 19:38:07.637609 10155 net.cpp:150] Setting up pool2
I0425 19:38:07.637614 10155 net.cpp:157] Top shape: 1 128 75 75 (720000)
I0425 19:38:07.637621 10155 net.cpp:165] Memory required for data: 145446400
I0425 19:38:07.637624 10155 layer_factory.hpp:77] Creating layer conv3_1
I0425 19:38:07.637632 10155 net.cpp:100] Creating Layer conv3_1
I0425 19:38:07.637636 10155 net.cpp:434] conv3_1 <- pool2
I0425 19:38:07.637641 10155 net.cpp:408] conv3_1 -> conv3_1
I0425 19:38:07.639148 10155 net.cpp:150] Setting up conv3_1
I0425 19:38:07.639161 10155 net.cpp:157] Top shape: 1 256 75 75 (1440000)
I0425 19:38:07.639165 10155 net.cpp:165] Memory required for data: 151206400
I0425 19:38:07.639173 10155 layer_factory.hpp:77] Creating layer relu3_1
I0425 19:38:07.639179 10155 net.cpp:100] Creating Layer relu3_1
I0425 19:38:07.639183 10155 net.cpp:434] relu3_1 <- conv3_1
I0425 19:38:07.639188 10155 net.cpp:395] relu3_1 -> conv3_1 (in-place)
I0425 19:38:07.639317 10155 net.cpp:150] Setting up relu3_1
I0425 19:38:07.639323 10155 net.cpp:157] Top shape: 1 256 75 75 (1440000)
I0425 19:38:07.639328 10155 net.cpp:165] Memory required for data: 156966400
I0425 19:38:07.639330 10155 layer_factory.hpp:77] Creating layer conv3_2
I0425 19:38:07.639339 10155 net.cpp:100] Creating Layer conv3_2
I0425 19:38:07.639344 10155 net.cpp:434] conv3_2 <- conv3_1
I0425 19:38:07.639350 10155 net.cpp:408] conv3_2 -> conv3_2
I0425 19:38:07.640935 10155 net.cpp:150] Setting up conv3_2
I0425 19:38:07.640949 10155 net.cpp:157] Top shape: 1 256 75 75 (1440000)
I0425 19:38:07.640952 10155 net.cpp:165] Memory required for data: 162726400
I0425 19:38:07.640959 10155 layer_factory.hpp:77] Creating layer relu3_2
I0425 19:38:07.640967 10155 net.cpp:100] Creating Layer relu3_2
I0425 19:38:07.640971 10155 net.cpp:434] relu3_2 <- conv3_2
I0425 19:38:07.640976 10155 net.cpp:395] relu3_2 -> conv3_2 (in-place)
I0425 19:38:07.641108 10155 net.cpp:150] Setting up relu3_2
I0425 19:38:07.641116 10155 net.cpp:157] Top shape: 1 256 75 75 (1440000)
I0425 19:38:07.641119 10155 net.cpp:165] Memory required for data: 168486400
I0425 19:38:07.641122 10155 layer_factory.hpp:77] Creating layer conv3_3
I0425 19:38:07.641131 10155 net.cpp:100] Creating Layer conv3_3
I0425 19:38:07.641135 10155 net.cpp:434] conv3_3 <- conv3_2
I0425 19:38:07.641140 10155 net.cpp:408] conv3_3 -> conv3_3
I0425 19:38:07.642767 10155 net.cpp:150] Setting up conv3_3
I0425 19:38:07.642781 10155 net.cpp:157] Top shape: 1 256 75 75 (1440000)
I0425 19:38:07.642784 10155 net.cpp:165] Memory required for data: 174246400
I0425 19:38:07.642791 10155 layer_factory.hpp:77] Creating layer relu3_3
I0425 19:38:07.642797 10155 net.cpp:100] Creating Layer relu3_3
I0425 19:38:07.642802 10155 net.cpp:434] relu3_3 <- conv3_3
I0425 19:38:07.642807 10155 net.cpp:395] relu3_3 -> conv3_3 (in-place)
I0425 19:38:07.643024 10155 net.cpp:150] Setting up relu3_3
I0425 19:38:07.643033 10155 net.cpp:157] Top shape: 1 256 75 75 (1440000)
I0425 19:38:07.643038 10155 net.cpp:165] Memory required for data: 180006400
I0425 19:38:07.643041 10155 layer_factory.hpp:77] Creating layer pool3
I0425 19:38:07.643048 10155 net.cpp:100] Creating Layer pool3
I0425 19:38:07.643050 10155 net.cpp:434] pool3 <- conv3_3
I0425 19:38:07.643056 10155 net.cpp:408] pool3 -> pool3
I0425 19:38:07.643088 10155 net.cpp:150] Setting up pool3
I0425 19:38:07.643095 10155 net.cpp:157] Top shape: 1 256 38 38 (369664)
I0425 19:38:07.643100 10155 net.cpp:165] Memory required for data: 181485056
I0425 19:38:07.643102 10155 layer_factory.hpp:77] Creating layer pool3_pool3_0_split
I0425 19:38:07.643107 10155 net.cpp:100] Creating Layer pool3_pool3_0_split
I0425 19:38:07.643110 10155 net.cpp:434] pool3_pool3_0_split <- pool3
I0425 19:38:07.643115 10155 net.cpp:408] pool3_pool3_0_split -> pool3_pool3_0_split_0
I0425 19:38:07.643123 10155 net.cpp:408] pool3_pool3_0_split -> pool3_pool3_0_split_1
I0425 19:38:07.643147 10155 net.cpp:150] Setting up pool3_pool3_0_split
I0425 19:38:07.643153 10155 net.cpp:157] Top shape: 1 256 38 38 (369664)
I0425 19:38:07.643157 10155 net.cpp:157] Top shape: 1 256 38 38 (369664)
I0425 19:38:07.643160 10155 net.cpp:165] Memory required for data: 184442368
I0425 19:38:07.643164 10155 layer_factory.hpp:77] Creating layer conv4_1
I0425 19:38:07.643177 10155 net.cpp:100] Creating Layer conv4_1
I0425 19:38:07.643182 10155 net.cpp:434] conv4_1 <- pool3_pool3_0_split_0
I0425 19:38:07.643187 10155 net.cpp:408] conv4_1 -> conv4_1
I0425 19:38:07.645957 10155 net.cpp:150] Setting up conv4_1
I0425 19:38:07.645983 10155 net.cpp:157] Top shape: 1 512 38 38 (739328)
I0425 19:38:07.645987 10155 net.cpp:165] Memory required for data: 187399680
I0425 19:38:07.645995 10155 layer_factory.hpp:77] Creating layer relu4_1
I0425 19:38:07.646003 10155 net.cpp:100] Creating Layer relu4_1
I0425 19:38:07.646009 10155 net.cpp:434] relu4_1 <- conv4_1
I0425 19:38:07.646015 10155 net.cpp:395] relu4_1 -> conv4_1 (in-place)
I0425 19:38:07.646231 10155 net.cpp:150] Setting up relu4_1
I0425 19:38:07.646240 10155 net.cpp:157] Top shape: 1 512 38 38 (739328)
I0425 19:38:07.646245 10155 net.cpp:165] Memory required for data: 190356992
I0425 19:38:07.646248 10155 layer_factory.hpp:77] Creating layer conv4_2
I0425 19:38:07.646257 10155 net.cpp:100] Creating Layer conv4_2
I0425 19:38:07.646261 10155 net.cpp:434] conv4_2 <- conv4_1
I0425 19:38:07.646267 10155 net.cpp:408] conv4_2 -> conv4_2
I0425 19:38:07.651998 10155 net.cpp:150] Setting up conv4_2
I0425 19:38:07.652029 10155 net.cpp:157] Top shape: 1 512 38 38 (739328)
I0425 19:38:07.652034 10155 net.cpp:165] Memory required for data: 193314304
I0425 19:38:07.652050 10155 layer_factory.hpp:77] Creating layer relu4_2
I0425 19:38:07.652058 10155 net.cpp:100] Creating Layer relu4_2
I0425 19:38:07.652063 10155 net.cpp:434] relu4_2 <- conv4_2
I0425 19:38:07.652070 10155 net.cpp:395] relu4_2 -> conv4_2 (in-place)
I0425 19:38:07.652200 10155 net.cpp:150] Setting up relu4_2
I0425 19:38:07.652207 10155 net.cpp:157] Top shape: 1 512 38 38 (739328)
I0425 19:38:07.652211 10155 net.cpp:165] Memory required for data: 196271616
I0425 19:38:07.652215 10155 layer_factory.hpp:77] Creating layer conv4_3
I0425 19:38:07.652225 10155 net.cpp:100] Creating Layer conv4_3
I0425 19:38:07.652228 10155 net.cpp:434] conv4_3 <- conv4_2
I0425 19:38:07.652235 10155 net.cpp:408] conv4_3 -> conv4_3
I0425 19:38:07.657124 10155 net.cpp:150] Setting up conv4_3
I0425 19:38:07.657157 10155 net.cpp:157] Top shape: 1 512 38 38 (739328)
I0425 19:38:07.657163 10155 net.cpp:165] Memory required for data: 199228928
I0425 19:38:07.657172 10155 layer_factory.hpp:77] Creating layer relu4_3
I0425 19:38:07.657184 10155 net.cpp:100] Creating Layer relu4_3
I0425 19:38:07.657191 10155 net.cpp:434] relu4_3 <- conv4_3
I0425 19:38:07.657197 10155 net.cpp:395] relu4_3 -> conv4_3 (in-place)
I0425 19:38:07.657449 10155 net.cpp:150] Setting up relu4_3
I0425 19:38:07.657460 10155 net.cpp:157] Top shape: 1 512 38 38 (739328)
I0425 19:38:07.657464 10155 net.cpp:165] Memory required for data: 202186240
I0425 19:38:07.657469 10155 layer_factory.hpp:77] Creating layer pool4
I0425 19:38:07.657479 10155 net.cpp:100] Creating Layer pool4
I0425 19:38:07.657482 10155 net.cpp:434] pool4 <- conv4_3
I0425 19:38:07.657488 10155 net.cpp:408] pool4 -> pool4
I0425 19:38:07.657527 10155 net.cpp:150] Setting up pool4
I0425 19:38:07.657533 10155 net.cpp:157] Top shape: 1 512 19 19 (184832)
I0425 19:38:07.657536 10155 net.cpp:165] Memory required for data: 202925568
I0425 19:38:07.657541 10155 layer_factory.hpp:77] Creating layer pool4_pool4_0_split
I0425 19:38:07.657546 10155 net.cpp:100] Creating Layer pool4_pool4_0_split
I0425 19:38:07.657551 10155 net.cpp:434] pool4_pool4_0_split <- pool4
I0425 19:38:07.657554 10155 net.cpp:408] pool4_pool4_0_split -> pool4_pool4_0_split_0
I0425 19:38:07.657560 10155 net.cpp:408] pool4_pool4_0_split -> pool4_pool4_0_split_1
I0425 19:38:07.657587 10155 net.cpp:150] Setting up pool4_pool4_0_split
I0425 19:38:07.657591 10155 net.cpp:157] Top shape: 1 512 19 19 (184832)
I0425 19:38:07.657595 10155 net.cpp:157] Top shape: 1 512 19 19 (184832)
I0425 19:38:07.657598 10155 net.cpp:165] Memory required for data: 204404224
I0425 19:38:07.657603 10155 layer_factory.hpp:77] Creating layer conv5_1
I0425 19:38:07.657613 10155 net.cpp:100] Creating Layer conv5_1
I0425 19:38:07.657622 10155 net.cpp:434] conv5_1 <- pool4_pool4_0_split_0
I0425 19:38:07.657627 10155 net.cpp:408] conv5_1 -> conv5_1
I0425 19:38:07.662816 10155 net.cpp:150] Setting up conv5_1
I0425 19:38:07.662842 10155 net.cpp:157] Top shape: 1 512 19 19 (184832)
I0425 19:38:07.662845 10155 net.cpp:165] Memory required for data: 205143552
I0425 19:38:07.662853 10155 layer_factory.hpp:77] Creating layer relu5_1
I0425 19:38:07.662863 10155 net.cpp:100] Creating Layer relu5_1
I0425 19:38:07.662868 10155 net.cpp:434] relu5_1 <- conv5_1
I0425 19:38:07.662874 10155 net.cpp:395] relu5_1 -> conv5_1 (in-place)
I0425 19:38:07.663007 10155 net.cpp:150] Setting up relu5_1
I0425 19:38:07.663014 10155 net.cpp:157] Top shape: 1 512 19 19 (184832)
I0425 19:38:07.663018 10155 net.cpp:165] Memory required for data: 205882880
I0425 19:38:07.663022 10155 layer_factory.hpp:77] Creating layer conv5_2
I0425 19:38:07.663030 10155 net.cpp:100] Creating Layer conv5_2
I0425 19:38:07.663035 10155 net.cpp:434] conv5_2 <- conv5_1
I0425 19:38:07.663040 10155 net.cpp:408] conv5_2 -> conv5_2
I0425 19:38:07.668959 10155 net.cpp:150] Setting up conv5_2
I0425 19:38:07.669008 10155 net.cpp:157] Top shape: 1 512 19 19 (184832)
I0425 19:38:07.669014 10155 net.cpp:165] Memory required for data: 206622208
I0425 19:38:07.669023 10155 layer_factory.hpp:77] Creating layer relu5_2
I0425 19:38:07.669040 10155 net.cpp:100] Creating Layer relu5_2
I0425 19:38:07.669056 10155 net.cpp:434] relu5_2 <- conv5_2
I0425 19:38:07.669065 10155 net.cpp:395] relu5_2 -> conv5_2 (in-place)
I0425 19:38:07.669216 10155 net.cpp:150] Setting up relu5_2
I0425 19:38:07.669225 10155 net.cpp:157] Top shape: 1 512 19 19 (184832)
I0425 19:38:07.669229 10155 net.cpp:165] Memory required for data: 207361536
I0425 19:38:07.669232 10155 layer_factory.hpp:77] Creating layer conv5_3
I0425 19:38:07.669244 10155 net.cpp:100] Creating Layer conv5_3
I0425 19:38:07.669248 10155 net.cpp:434] conv5_3 <- conv5_2
I0425 19:38:07.669255 10155 net.cpp:408] conv5_3 -> conv5_3
I0425 19:38:07.674674 10155 net.cpp:150] Setting up conv5_3
I0425 19:38:07.674700 10155 net.cpp:157] Top shape: 1 512 19 19 (184832)
I0425 19:38:07.674703 10155 net.cpp:165] Memory required for data: 208100864
I0425 19:38:07.674711 10155 layer_factory.hpp:77] Creating layer relu5_3
I0425 19:38:07.674720 10155 net.cpp:100] Creating Layer relu5_3
I0425 19:38:07.674726 10155 net.cpp:434] relu5_3 <- conv5_3
I0425 19:38:07.674732 10155 net.cpp:395] relu5_3 -> conv5_3 (in-place)
I0425 19:38:07.674968 10155 net.cpp:150] Setting up relu5_3
I0425 19:38:07.674978 10155 net.cpp:157] Top shape: 1 512 19 19 (184832)
I0425 19:38:07.674983 10155 net.cpp:165] Memory required for data: 208840192
I0425 19:38:07.674985 10155 layer_factory.hpp:77] Creating layer pool5
I0425 19:38:07.674993 10155 net.cpp:100] Creating Layer pool5
I0425 19:38:07.674998 10155 net.cpp:434] pool5 <- conv5_3
I0425 19:38:07.675002 10155 net.cpp:408] pool5 -> pool5
I0425 19:38:07.675040 10155 net.cpp:150] Setting up pool5
I0425 19:38:07.675045 10155 net.cpp:157] Top shape: 1 512 10 10 (51200)
I0425 19:38:07.675048 10155 net.cpp:165] Memory required for data: 209044992
I0425 19:38:07.675052 10155 layer_factory.hpp:77] Creating layer fc6
I0425 19:38:07.675061 10155 net.cpp:100] Creating Layer fc6
I0425 19:38:07.675065 10155 net.cpp:434] fc6 <- pool5
I0425 19:38:07.675071 10155 net.cpp:408] fc6 -> fc6
I0425 19:38:07.893606 10155 net.cpp:150] Setting up fc6
I0425 19:38:07.893640 10155 net.cpp:157] Top shape: 1 4096 4 4 (65536)
I0425 19:38:07.893646 10155 net.cpp:165] Memory required for data: 209307136
I0425 19:38:07.893656 10155 layer_factory.hpp:77] Creating layer relu6
I0425 19:38:07.893666 10155 net.cpp:100] Creating Layer relu6
I0425 19:38:07.893671 10155 net.cpp:434] relu6 <- fc6
I0425 19:38:07.893681 10155 net.cpp:395] relu6 -> fc6 (in-place)
I0425 19:38:07.893918 10155 net.cpp:150] Setting up relu6
I0425 19:38:07.893929 10155 net.cpp:157] Top shape: 1 4096 4 4 (65536)
I0425 19:38:07.893934 10155 net.cpp:165] Memory required for data: 209569280
I0425 19:38:07.893944 10155 layer_factory.hpp:77] Creating layer drop6
I0425 19:38:07.893954 10155 net.cpp:100] Creating Layer drop6
I0425 19:38:07.893957 10155 net.cpp:434] drop6 <- fc6
I0425 19:38:07.893962 10155 net.cpp:395] drop6 -> fc6 (in-place)
I0425 19:38:07.893991 10155 net.cpp:150] Setting up drop6
I0425 19:38:07.893997 10155 net.cpp:157] Top shape: 1 4096 4 4 (65536)
I0425 19:38:07.894001 10155 net.cpp:165] Memory required for data: 209831424
I0425 19:38:07.894004 10155 layer_factory.hpp:77] Creating layer fc7
I0425 19:38:07.894013 10155 net.cpp:100] Creating Layer fc7
I0425 19:38:07.894017 10155 net.cpp:434] fc7 <- fc6
I0425 19:38:07.894022 10155 net.cpp:408] fc7 -> fc7
I0425 19:38:07.929795 10155 net.cpp:150] Setting up fc7
I0425 19:38:07.929831 10155 net.cpp:157] Top shape: 1 4096 4 4 (65536)
I0425 19:38:07.929837 10155 net.cpp:165] Memory required for data: 210093568
I0425 19:38:07.929847 10155 layer_factory.hpp:77] Creating layer relu7
I0425 19:38:07.929859 10155 net.cpp:100] Creating Layer relu7
I0425 19:38:07.929865 10155 net.cpp:434] relu7 <- fc7
I0425 19:38:07.929875 10155 net.cpp:395] relu7 -> fc7 (in-place)
I0425 19:38:07.930013 10155 net.cpp:150] Setting up relu7
I0425 19:38:07.930022 10155 net.cpp:157] Top shape: 1 4096 4 4 (65536)
I0425 19:38:07.930027 10155 net.cpp:165] Memory required for data: 210355712
I0425 19:38:07.930029 10155 layer_factory.hpp:77] Creating layer drop7
I0425 19:38:07.930037 10155 net.cpp:100] Creating Layer drop7
I0425 19:38:07.930042 10155 net.cpp:434] drop7 <- fc7
I0425 19:38:07.930047 10155 net.cpp:395] drop7 -> fc7 (in-place)
I0425 19:38:07.930071 10155 net.cpp:150] Setting up drop7
I0425 19:38:07.930076 10155 net.cpp:157] Top shape: 1 4096 4 4 (65536)
I0425 19:38:07.930080 10155 net.cpp:165] Memory required for data: 210617856
I0425 19:38:07.930083 10155 layer_factory.hpp:77] Creating layer score_fr
I0425 19:38:07.930093 10155 net.cpp:100] Creating Layer score_fr
I0425 19:38:07.930096 10155 net.cpp:434] score_fr <- fc7
I0425 19:38:07.930101 10155 net.cpp:408] score_fr -> score_fr
I0425 19:38:07.930941 10155 net.cpp:150] Setting up score_fr
I0425 19:38:07.930953 10155 net.cpp:157] Top shape: 1 2 4 4 (32)
I0425 19:38:07.930958 10155 net.cpp:165] Memory required for data: 210617984
I0425 19:38:07.930963 10155 layer_factory.hpp:77] Creating layer upscore2
I0425 19:38:07.930976 10155 net.cpp:100] Creating Layer upscore2
I0425 19:38:07.930981 10155 net.cpp:434] upscore2 <- score_fr
I0425 19:38:07.930987 10155 net.cpp:408] upscore2 -> upscore2
I0425 19:38:07.931139 10155 net.cpp:150] Setting up upscore2
I0425 19:38:07.931146 10155 net.cpp:157] Top shape: 1 2 10 10 (200)
I0425 19:38:07.931149 10155 net.cpp:165] Memory required for data: 210618784
I0425 19:38:07.931159 10155 layer_factory.hpp:77] Creating layer upscore2_upscore2_0_split
I0425 19:38:07.931166 10155 net.cpp:100] Creating Layer upscore2_upscore2_0_split
I0425 19:38:07.931169 10155 net.cpp:434] upscore2_upscore2_0_split <- upscore2
I0425 19:38:07.931174 10155 net.cpp:408] upscore2_upscore2_0_split -> upscore2_upscore2_0_split_0
I0425 19:38:07.931181 10155 net.cpp:408] upscore2_upscore2_0_split -> upscore2_upscore2_0_split_1
I0425 19:38:07.931211 10155 net.cpp:150] Setting up upscore2_upscore2_0_split
I0425 19:38:07.931218 10155 net.cpp:157] Top shape: 1 2 10 10 (200)
I0425 19:38:07.931222 10155 net.cpp:157] Top shape: 1 2 10 10 (200)
I0425 19:38:07.931226 10155 net.cpp:165] Memory required for data: 210620384
I0425 19:38:07.931228 10155 layer_factory.hpp:77] Creating layer score_pool4
I0425 19:38:07.931236 10155 net.cpp:100] Creating Layer score_pool4
I0425 19:38:07.931239 10155 net.cpp:434] score_pool4 <- pool4_pool4_0_split_1
I0425 19:38:07.931246 10155 net.cpp:408] score_pool4 -> score_pool4
I0425 19:38:07.932107 10155 net.cpp:150] Setting up score_pool4
I0425 19:38:07.932119 10155 net.cpp:157] Top shape: 1 2 19 19 (722)
I0425 19:38:07.932123 10155 net.cpp:165] Memory required for data: 210623272
I0425 19:38:07.932129 10155 layer_factory.hpp:77] Creating layer score_pool4c
I0425 19:38:07.932138 10155 net.cpp:100] Creating Layer score_pool4c
I0425 19:38:07.932148 10155 net.cpp:434] score_pool4c <- score_pool4
I0425 19:38:07.932153 10155 net.cpp:434] score_pool4c <- upscore2_upscore2_0_split_0
I0425 19:38:07.932158 10155 net.cpp:408] score_pool4c -> score_pool4c
I0425 19:38:07.932188 10155 net.cpp:150] Setting up score_pool4c
I0425 19:38:07.932193 10155 net.cpp:157] Top shape: 1 2 10 10 (200)
I0425 19:38:07.932196 10155 net.cpp:165] Memory required for data: 210624072
I0425 19:38:07.932200 10155 layer_factory.hpp:77] Creating layer fuse_pool4
I0425 19:38:07.932209 10155 net.cpp:100] Creating Layer fuse_pool4
I0425 19:38:07.932212 10155 net.cpp:434] fuse_pool4 <- upscore2_upscore2_0_split_1
I0425 19:38:07.932216 10155 net.cpp:434] fuse_pool4 <- score_pool4c
I0425 19:38:07.932220 10155 net.cpp:408] fuse_pool4 -> fuse_pool4
I0425 19:38:07.932243 10155 net.cpp:150] Setting up fuse_pool4
I0425 19:38:07.932248 10155 net.cpp:157] Top shape: 1 2 10 10 (200)
I0425 19:38:07.932251 10155 net.cpp:165] Memory required for data: 210624872
I0425 19:38:07.932255 10155 layer_factory.hpp:77] Creating layer upscore_pool4
I0425 19:38:07.932261 10155 net.cpp:100] Creating Layer upscore_pool4
I0425 19:38:07.932265 10155 net.cpp:434] upscore_pool4 <- fuse_pool4
I0425 19:38:07.932271 10155 net.cpp:408] upscore_pool4 -> upscore_pool4
I0425 19:38:07.932404 10155 net.cpp:150] Setting up upscore_pool4
I0425 19:38:07.932411 10155 net.cpp:157] Top shape: 1 2 22 22 (968)
I0425 19:38:07.932415 10155 net.cpp:165] Memory required for data: 210628744
I0425 19:38:07.932418 10155 layer_factory.hpp:77] Creating layer upscore_pool4_upscore_pool4_0_split
I0425 19:38:07.932423 10155 net.cpp:100] Creating Layer upscore_pool4_upscore_pool4_0_split
I0425 19:38:07.932427 10155 net.cpp:434] upscore_pool4_upscore_pool4_0_split <- upscore_pool4
I0425 19:38:07.932432 10155 net.cpp:408] upscore_pool4_upscore_pool4_0_split -> upscore_pool4_upscore_pool4_0_split_0
I0425 19:38:07.932438 10155 net.cpp:408] upscore_pool4_upscore_pool4_0_split -> upscore_pool4_upscore_pool4_0_split_1
I0425 19:38:07.932462 10155 net.cpp:150] Setting up upscore_pool4_upscore_pool4_0_split
I0425 19:38:07.932467 10155 net.cpp:157] Top shape: 1 2 22 22 (968)
I0425 19:38:07.932471 10155 net.cpp:157] Top shape: 1 2 22 22 (968)
I0425 19:38:07.932474 10155 net.cpp:165] Memory required for data: 210636488
I0425 19:38:07.932478 10155 layer_factory.hpp:77] Creating layer score_pool3
I0425 19:38:07.932485 10155 net.cpp:100] Creating Layer score_pool3
I0425 19:38:07.932489 10155 net.cpp:434] score_pool3 <- pool3_pool3_0_split_1
I0425 19:38:07.932494 10155 net.cpp:408] score_pool3 -> score_pool3
I0425 19:38:07.933240 10155 net.cpp:150] Setting up score_pool3
I0425 19:38:07.933253 10155 net.cpp:157] Top shape: 1 2 38 38 (2888)
I0425 19:38:07.933256 10155 net.cpp:165] Memory required for data: 210648040
I0425 19:38:07.933262 10155 layer_factory.hpp:77] Creating layer score_pool3c
I0425 19:38:07.933269 10155 net.cpp:100] Creating Layer score_pool3c
I0425 19:38:07.933272 10155 net.cpp:434] score_pool3c <- score_pool3
I0425 19:38:07.933277 10155 net.cpp:434] score_pool3c <- upscore_pool4_upscore_pool4_0_split_0
I0425 19:38:07.933282 10155 net.cpp:408] score_pool3c -> score_pool3c
I0425 19:38:07.933305 10155 net.cpp:150] Setting up score_pool3c
I0425 19:38:07.933310 10155 net.cpp:157] Top shape: 1 2 22 22 (968)
I0425 19:38:07.933315 10155 net.cpp:165] Memory required for data: 210651912
I0425 19:38:07.933317 10155 layer_factory.hpp:77] Creating layer fuse_pool3
I0425 19:38:07.933324 10155 net.cpp:100] Creating Layer fuse_pool3
I0425 19:38:07.933328 10155 net.cpp:434] fuse_pool3 <- upscore_pool4_upscore_pool4_0_split_1
I0425 19:38:07.933332 10155 net.cpp:434] fuse_pool3 <- score_pool3c
I0425 19:38:07.933337 10155 net.cpp:408] fuse_pool3 -> fuse_pool3
I0425 19:38:07.933357 10155 net.cpp:150] Setting up fuse_pool3
I0425 19:38:07.933362 10155 net.cpp:157] Top shape: 1 2 22 22 (968)
I0425 19:38:07.933364 10155 net.cpp:165] Memory required for data: 210655784
I0425 19:38:07.933368 10155 layer_factory.hpp:77] Creating layer upscore8
I0425 19:38:07.933377 10155 net.cpp:100] Creating Layer upscore8
I0425 19:38:07.933382 10155 net.cpp:434] upscore8 <- fuse_pool3
I0425 19:38:07.933387 10155 net.cpp:408] upscore8 -> upscore8
I0425 19:38:07.933517 10155 net.cpp:150] Setting up upscore8
I0425 19:38:07.933523 10155 net.cpp:157] Top shape: 1 2 184 184 (67712)
I0425 19:38:07.933526 10155 net.cpp:165] Memory required for data: 210926632
I0425 19:38:07.933531 10155 layer_factory.hpp:77] Creating layer score
I0425 19:38:07.933537 10155 net.cpp:100] Creating Layer score
I0425 19:38:07.933539 10155 net.cpp:434] score <- upscore8
I0425 19:38:07.933543 10155 net.cpp:434] score <- data_data_0_split_1
I0425 19:38:07.933548 10155 net.cpp:408] score -> score
I0425 19:38:07.933568 10155 net.cpp:150] Setting up score
I0425 19:38:07.933573 10155 net.cpp:157] Top shape: 1 2 100 100 (20000)
I0425 19:38:07.933575 10155 net.cpp:165] Memory required for data: 211006632
I0425 19:38:07.933578 10155 layer_factory.hpp:77] Creating layer score_score_0_split
I0425 19:38:07.933583 10155 net.cpp:100] Creating Layer score_score_0_split
I0425 19:38:07.933586 10155 net.cpp:434] score_score_0_split <- score
I0425 19:38:07.933591 10155 net.cpp:408] score_score_0_split -> score_score_0_split_0
I0425 19:38:07.933596 10155 net.cpp:408] score_score_0_split -> score_score_0_split_1
I0425 19:38:07.933622 10155 net.cpp:150] Setting up score_score_0_split
I0425 19:38:07.933629 10155 net.cpp:157] Top shape: 1 2 100 100 (20000)
I0425 19:38:07.933632 10155 net.cpp:157] Top shape: 1 2 100 100 (20000)
I0425 19:38:07.933635 10155 net.cpp:165] Memory required for data: 211166632
I0425 19:38:07.933639 10155 layer_factory.hpp:77] Creating layer loss
I0425 19:38:07.933645 10155 net.cpp:100] Creating Layer loss
I0425 19:38:07.933650 10155 net.cpp:434] loss <- score_score_0_split_0
I0425 19:38:07.933653 10155 net.cpp:434] loss <- label_data_1_split_0
I0425 19:38:07.933660 10155 net.cpp:408] loss -> loss
I0425 19:38:07.933668 10155 layer_factory.hpp:77] Creating layer loss
I0425 19:38:07.933889 10155 net.cpp:150] Setting up loss
I0425 19:38:07.933897 10155 net.cpp:157] Top shape: (1)
I0425 19:38:07.933900 10155 net.cpp:160]     with loss weight 1
I0425 19:38:07.933914 10155 net.cpp:165] Memory required for data: 211166636
I0425 19:38:07.933918 10155 layer_factory.hpp:77] Creating layer dice
I0425 19:38:07.934095 10155 net.cpp:100] Creating Layer dice
I0425 19:38:07.934103 10155 net.cpp:434] dice <- score_score_0_split_1
I0425 19:38:07.934108 10155 net.cpp:434] dice <- label_data_1_split_1
I0425 19:38:07.934113 10155 net.cpp:408] dice -> dice
I0425 19:38:07.934200 10155 net.cpp:150] Setting up dice
I0425 19:38:07.934207 10155 net.cpp:157] Top shape: 1 (1)
I0425 19:38:07.934211 10155 net.cpp:165] Memory required for data: 211166640
I0425 19:38:07.934214 10155 net.cpp:228] dice does not need backward computation.
I0425 19:38:07.934218 10155 net.cpp:226] loss needs backward computation.
I0425 19:38:07.934222 10155 net.cpp:226] score_score_0_split needs backward computation.
I0425 19:38:07.934226 10155 net.cpp:226] score needs backward computation.
…
