…
I0425 01:55:15.165634  9188 solver.cpp:81] Creating training net from train_net file: train.prototxt
I0425 01:55:15.166244  9188 net.cpp:358] The NetState did not contain stage 'deploy' specified by a rule in layer dice
I0425 01:55:15.166388  9188 net.cpp:58] Initializing net from parameters: 
state {
  phase: TRAIN
}
layer {
  name: "data"
  type: "Python"
  top: "data"
  top: "label"
  python_param {
    module: "voc_layers"
    layer: "VOCSegDataLayer"
    param_str: "{\'voc_dir\': \'/home/zeven/caffe/examples/fcn/CT-fcn32s/CTData\', \'seed\': 1337, \'split\': \'train\', \'mean\': (166.93918, 166.93918, 166.93918)}"
  }
}
layer {
  name: "conv1_1"
  type: "Convolution"
  bottom: "data"
  top: "conv1_1"
  param {
    lr_mult: 1
    decay_mult: 1
  }
  param {
    lr_mult: 2
    decay_mult: 0
  }
  convolution_param {
    num_output: 64
    pad: 100
    kernel_size: 3
    stride: 1
  }
}
layer {
  name: "relu1_1"
  type: "ReLU"
  bottom: "conv1_1"
  top: "conv1_1"
}
layer {
  name: "conv1_2"
  type: "Convolution"
  bottom: "conv1_1"
  top: "conv1_2"
  param {
    lr_mult: 1
    decay_mult: 1
  }
  param {
    lr_mult: 2
    decay_mult: 0
  }
  convolution_param {
    num_output: 64
    pad: 1
    kernel_size: 3
    stride: 1
  }
}
layer {
  name: "relu1_2"
  type: "ReLU"
  bottom: "conv1_2"
  top: "conv1_2"
}
layer {
  name: "pool1"
  type: "Pooling"
  bottom: "conv1_2"
  top: "pool1"
  pooling_param {
    pool: MAX
    kernel_size: 2
    stride: 2
  }
}
layer {
  name: "conv2_1"
  type: "Convolution"
  bottom: "pool1"
  top: "conv2_1"
  param {
    lr_mult: 1
    decay_mult: 1
  }
  param {
    lr_mult: 2
    decay_mult: 0
  }
  convolution_param {
    num_output: 128
    pad: 1
    kernel_size: 3
    stride: 1
  }
}
layer {
  name: "relu2_1"
  type: "ReLU"
  bottom: "conv2_1"
  top: "conv2_1"
}
layer {
  name: "conv2_2"
  type: "Convolution"
  bottom: "conv2_1"
  top: "conv2_2"
  param {
    lr_mult: 1
    decay_mult: 1
  }
  param {
    lr_mult: 2
    decay_mult: 0
  }
  convolution_param {
    num_output: 128
    pad: 1
    kernel_size: 3
    stride: 1
  }
}
layer {
  name: "relu2_2"
  type: "ReLU"
  bottom: "conv2_2"
  top: "conv2_2"
}
layer {
  name: "pool2"
  type: "Pooling"
  bottom: "conv2_2"
  top: "pool2"
  pooling_param {
    pool: MAX
    kernel_size: 2
    stride: 2
  }
}
layer {
  name: "conv3_1"
  type: "Convolution"
  bottom: "pool2"
  top: "conv3_1"
  param {
    lr_mult: 1
    decay_mult: 1
  }
  param {
    lr_mult: 2
    decay_mult: 0
  }
  convolution_param {
    num_output: 256
    pad: 1
    kernel_size: 3
    stride: 1
  }
}
layer {
  name: "relu3_1"
  type: "ReLU"
  bottom: "conv3_1"
  top: "conv3_1"
}
layer {
  name: "conv3_2"
  type: "Convolution"
  bottom: "conv3_1"
  top: "conv3_2"
  param {
    lr_mult: 1
    decay_mult: 1
  }
  param {
    lr_mult: 2
    decay_mult: 0
  }
  convolution_param {
    num_output: 256
    pad: 1
    kernel_size: 3
    stride: 1
  }
}
layer {
  name: "relu3_2"
  type: "ReLU"
  bottom: "conv3_2"
  top: "conv3_2"
}
layer {
  name: "conv3_3"
  type: "Convolution"
  bottom: "conv3_2"
  top: "conv3_3"
  param {
    lr_mult: 1
    decay_mult: 1
  }
  param {
    lr_mult: 2
    decay_mult: 0
  }
  convolution_param {
    num_output: 256
    pad: 1
    kernel_size: 3
    stride: 1
  }
}
layer {
  name: "relu3_3"
  type: "ReLU"
  bottom: "conv3_3"
  top: "conv3_3"
}
layer {
  name: "pool3"
  type: "Pooling"
  bottom: "conv3_3"
  top: "pool3"
  pooling_param {
    pool: MAX
    kernel_size: 2
    stride: 2
  }
}
layer {
  name: "conv4_1"
  type: "Convolution"
  bottom: "pool3"
  top: "conv4_1"
  param {
    lr_mult: 1
    decay_mult: 1
  }
  param {
    lr_mult: 2
    decay_mult: 0
  }
  convolution_param {
    num_output: 512
    pad: 1
    kernel_size: 3
    stride: 1
  }
}
layer {
  name: "relu4_1"
  type: "ReLU"
  bottom: "conv4_1"
  top: "conv4_1"
}
layer {
  name: "conv4_2"
  type: "Convolution"
  bottom: "conv4_1"
  top: "conv4_2"
  param {
    lr_mult: 1
    decay_mult: 1
  }
  param {
    lr_mult: 2
    decay_mult: 0
  }
  convolution_param {
    num_output: 512
    pad: 1
    kernel_size: 3
    stride: 1
  }
}
layer {
  name: "relu4_2"
  type: "ReLU"
  bottom: "conv4_2"
  top: "conv4_2"
}
layer {
  name: "conv4_3"
  type: "Convolution"
  bottom: "conv4_2"
  top: "conv4_3"
  param {
    lr_mult: 1
    decay_mult: 1
  }
  param {
    lr_mult: 2
    decay_mult: 0
  }
  convolution_param {
    num_output: 512
    pad: 1
    kernel_size: 3
    stride: 1
  }
}
layer {
  name: "relu4_3"
  type: "ReLU"
  bottom: "conv4_3"
  top: "conv4_3"
}
layer {
  name: "pool4"
  type: "Pooling"
  bottom: "conv4_3"
  top: "pool4"
  pooling_param {
    pool: MAX
    kernel_size: 2
    stride: 2
  }
}
layer {
  name: "conv5_1"
  type: "Convolution"
  bottom: "pool4"
  top: "conv5_1"
  param {
    lr_mult: 1
    decay_mult: 1
  }
  param {
    lr_mult: 2
    decay_mult: 0
  }
  convolution_param {
    num_output: 512
    pad: 1
    kernel_size: 3
    stride: 1
  }
}
layer {
  name: "relu5_1"
  type: "ReLU"
  bottom: "conv5_1"
  top: "conv5_1"
}
layer {
  name: "conv5_2"
  type: "Convolution"
  bottom: "conv5_1"
  top: "conv5_2"
  param {
    lr_mult: 1
    decay_mult: 1
  }
  param {
    lr_mult: 2
    decay_mult: 0
  }
  convolution_param {
    num_output: 512
    pad: 1
    kernel_size: 3
    stride: 1
  }
}
layer {
  name: "relu5_2"
  type: "ReLU"
  bottom: "conv5_2"
  top: "conv5_2"
}
layer {
  name: "conv5_3"
  type: "Convolution"
  bottom: "conv5_2"
  top: "conv5_3"
  param {
    lr_mult: 1
    decay_mult: 1
  }
  param {
    lr_mult: 2
    decay_mult: 0
  }
  convolution_param {
    num_output: 512
    pad: 1
    kernel_size: 3
    stride: 1
  }
}
layer {
  name: "relu5_3"
  type: "ReLU"
  bottom: "conv5_3"
  top: "conv5_3"
}
layer {
  name: "pool5"
  type: "Pooling"
  bottom: "conv5_3"
  top: "pool5"
  pooling_param {
    pool: MAX
    kernel_size: 2
    stride: 2
  }
}
layer {
  name: "fc6"
  type: "Convolution"
  bottom: "pool5"
  top: "fc6"
  param {
    lr_mult: 1
    decay_mult: 1
  }
  param {
    lr_mult: 2
    decay_mult: 0
  }
  convolution_param {
    num_output: 4096
    pad: 0
    kernel_size: 7
    stride: 1
  }
}
layer {
  name: "relu6"
  type: "ReLU"
  bottom: "fc6"
  top: "fc6"
}
layer {
  name: "drop6"
  type: "Dropout"
  bottom: "fc6"
  top: "fc6"
  dropout_param {
    dropout_ratio: 0.5
  }
}
layer {
  name: "fc7"
  type: "Convolution"
  bottom: "fc6"
  top: "fc7"
  param {
    lr_mult: 1
    decay_mult: 1
  }
  param {
    lr_mult: 2
    decay_mult: 0
  }
  convolution_param {
    num_output: 4096
    pad: 0
    kernel_size: 1
    stride: 1
  }
}
layer {
  name: "relu7"
  type: "ReLU"
  bottom: "fc7"
  top: "fc7"
}
layer {
  name: "drop7"
  type: "Dropout"
  bottom: "fc7"
  top: "fc7"
  dropout_param {
    dropout_ratio: 0.5
  }
}
layer {
  name: "score_fr"
  type: "Convolution"
  bottom: "fc7"
  top: "score_fr"
  param {
    lr_mult: 1
    decay_mult: 1
  }
  param {
    lr_mult: 2
    decay_mult: 0
  }
  convolution_param {
    num_output: 2
    pad: 0
    kernel_size: 1
  }
}
layer {
  name: "upscore2"
  type: "Deconvolution"
  bottom: "score_fr"
  top: "upscore2"
  param {
    lr_mult: 0
  }
  convolution_param {
    num_output: 2
    bias_term: false
    kernel_size: 4
    stride: 2
  }
}
layer {
  name: "score_pool4"
  type: "Convolution"
  bottom: "pool4"
  top: "score_pool4"
  param {
    lr_mult: 1
    decay_mult: 1
  }
  param {
    lr_mult: 2
    decay_mult: 0
  }
  convolution_param {
    num_output: 2
    pad: 0
    kernel_size: 1
  }
}
layer {
  name: "score_pool4c"
  type: "Crop"
  bottom: "score_pool4"
  bottom: "upscore2"
  top: "score_pool4c"
  crop_param {
    axis: 2
    offset: 5
  }
}
layer {
  name: "fuse_pool4"
  type: "Eltwise"
  bottom: "upscore2"
  bottom: "score_pool4c"
  top: "fuse_pool4"
  eltwise_param {
    operation: SUM
  }
}
layer {
  name: "upscore16"
  type: "Deconvolution"
  bottom: "fuse_pool4"
  top: "upscore16"
  param {
    lr_mult: 0
  }
  convolution_param {
    num_output: 2
    bias_term: false
    kernel_size: 32
    stride: 16
  }
}
layer {
  name: "score"
  type: "Crop"
  bottom: "upscore16"
  bottom: "data"
  top: "score"
  crop_param {
    axis: 2
    offset: 27
  }
}
layer {
  name: "loss"
  type: "SoftmaxWithLoss"
  bottom: "score"
  bottom: "label"
  top: "loss"
  loss_param {
    ignore_label: 255
    normalize: false
  }
}
layer {
  name: "dice"
  type: "Python"
  bottom: "score"
  bottom: "label"
  top: "dice"
  exclude {
    stage: "deploy"
  }
  python_param {
    module: "dice"
    layer: "Dice"
  }
}
I0425 01:55:15.166538  9188 layer_factory.hpp:77] Creating layer data
I0425 01:55:15.166800  9188 net.cpp:100] Creating Layer data
I0425 01:55:15.166811  9188 net.cpp:408] data -> data
I0425 01:55:15.166823  9188 net.cpp:408] data -> label
I0425 01:55:15.959264  9188 net.cpp:150] Setting up data
I0425 01:55:15.959298  9188 net.cpp:157] Top shape: 1 3 100 100 (30000)
I0425 01:55:15.959303  9188 net.cpp:157] Top shape: 1 1 100 100 (10000)
I0425 01:55:15.959307  9188 net.cpp:165] Memory required for data: 160000
I0425 01:55:15.959313  9188 layer_factory.hpp:77] Creating layer data_data_0_split
I0425 01:55:15.959326  9188 net.cpp:100] Creating Layer data_data_0_split
I0425 01:55:15.959331  9188 net.cpp:434] data_data_0_split <- data
I0425 01:55:15.959339  9188 net.cpp:408] data_data_0_split -> data_data_0_split_0
I0425 01:55:15.959350  9188 net.cpp:408] data_data_0_split -> data_data_0_split_1
I0425 01:55:15.959374  9188 net.cpp:150] Setting up data_data_0_split
I0425 01:55:15.959380  9188 net.cpp:157] Top shape: 1 3 100 100 (30000)
I0425 01:55:15.959384  9188 net.cpp:157] Top shape: 1 3 100 100 (30000)
I0425 01:55:15.959388  9188 net.cpp:165] Memory required for data: 400000
I0425 01:55:15.959391  9188 layer_factory.hpp:77] Creating layer label_data_1_split
I0425 01:55:15.959396  9188 net.cpp:100] Creating Layer label_data_1_split
I0425 01:55:15.959399  9188 net.cpp:434] label_data_1_split <- label
I0425 01:55:15.959404  9188 net.cpp:408] label_data_1_split -> label_data_1_split_0
I0425 01:55:15.959409  9188 net.cpp:408] label_data_1_split -> label_data_1_split_1
I0425 01:55:15.959429  9188 net.cpp:150] Setting up label_data_1_split
I0425 01:55:15.959434  9188 net.cpp:157] Top shape: 1 1 100 100 (10000)
I0425 01:55:15.959437  9188 net.cpp:157] Top shape: 1 1 100 100 (10000)
I0425 01:55:15.959440  9188 net.cpp:165] Memory required for data: 480000
I0425 01:55:15.959444  9188 layer_factory.hpp:77] Creating layer conv1_1
I0425 01:55:15.959455  9188 net.cpp:100] Creating Layer conv1_1
I0425 01:55:15.959458  9188 net.cpp:434] conv1_1 <- data_data_0_split_0
I0425 01:55:15.959463  9188 net.cpp:408] conv1_1 -> conv1_1
I0425 01:55:16.596246  9188 net.cpp:150] Setting up conv1_1
I0425 01:55:16.596276  9188 net.cpp:157] Top shape: 1 64 298 298 (5683456)
I0425 01:55:16.596279  9188 net.cpp:165] Memory required for data: 23213824
I0425 01:55:16.596295  9188 layer_factory.hpp:77] Creating layer relu1_1
I0425 01:55:16.596307  9188 net.cpp:100] Creating Layer relu1_1
I0425 01:55:16.596310  9188 net.cpp:434] relu1_1 <- conv1_1
I0425 01:55:16.596316  9188 net.cpp:395] relu1_1 -> conv1_1 (in-place)
I0425 01:55:16.596524  9188 net.cpp:150] Setting up relu1_1
I0425 01:55:16.596532  9188 net.cpp:157] Top shape: 1 64 298 298 (5683456)
I0425 01:55:16.596536  9188 net.cpp:165] Memory required for data: 45947648
I0425 01:55:16.596539  9188 layer_factory.hpp:77] Creating layer conv1_2
I0425 01:55:16.596549  9188 net.cpp:100] Creating Layer conv1_2
I0425 01:55:16.596552  9188 net.cpp:434] conv1_2 <- conv1_1
I0425 01:55:16.596559  9188 net.cpp:408] conv1_2 -> conv1_2
I0425 01:55:16.597604  9188 net.cpp:150] Setting up conv1_2
I0425 01:55:16.597615  9188 net.cpp:157] Top shape: 1 64 298 298 (5683456)
I0425 01:55:16.597623  9188 net.cpp:165] Memory required for data: 68681472
I0425 01:55:16.597631  9188 layer_factory.hpp:77] Creating layer relu1_2
I0425 01:55:16.597637  9188 net.cpp:100] Creating Layer relu1_2
I0425 01:55:16.597640  9188 net.cpp:434] relu1_2 <- conv1_2
I0425 01:55:16.597645  9188 net.cpp:395] relu1_2 -> conv1_2 (in-place)
I0425 01:55:16.597757  9188 net.cpp:150] Setting up relu1_2
I0425 01:55:16.597764  9188 net.cpp:157] Top shape: 1 64 298 298 (5683456)
I0425 01:55:16.597767  9188 net.cpp:165] Memory required for data: 91415296
I0425 01:55:16.597771  9188 layer_factory.hpp:77] Creating layer pool1
I0425 01:55:16.597777  9188 net.cpp:100] Creating Layer pool1
I0425 01:55:16.597780  9188 net.cpp:434] pool1 <- conv1_2
I0425 01:55:16.597785  9188 net.cpp:408] pool1 -> pool1
I0425 01:55:16.597817  9188 net.cpp:150] Setting up pool1
I0425 01:55:16.597822  9188 net.cpp:157] Top shape: 1 64 149 149 (1420864)
I0425 01:55:16.597826  9188 net.cpp:165] Memory required for data: 97098752
I0425 01:55:16.597829  9188 layer_factory.hpp:77] Creating layer conv2_1
I0425 01:55:16.597836  9188 net.cpp:100] Creating Layer conv2_1
I0425 01:55:16.597839  9188 net.cpp:434] conv2_1 <- pool1
I0425 01:55:16.597844  9188 net.cpp:408] conv2_1 -> conv2_1
I0425 01:55:16.598613  9188 net.cpp:150] Setting up conv2_1
I0425 01:55:16.598623  9188 net.cpp:157] Top shape: 1 128 149 149 (2841728)
I0425 01:55:16.598628  9188 net.cpp:165] Memory required for data: 108465664
I0425 01:55:16.598634  9188 layer_factory.hpp:77] Creating layer relu2_1
I0425 01:55:16.598639  9188 net.cpp:100] Creating Layer relu2_1
I0425 01:55:16.598644  9188 net.cpp:434] relu2_1 <- conv2_1
I0425 01:55:16.598649  9188 net.cpp:395] relu2_1 -> conv2_1 (in-place)
I0425 01:55:16.598760  9188 net.cpp:150] Setting up relu2_1
I0425 01:55:16.598767  9188 net.cpp:157] Top shape: 1 128 149 149 (2841728)
I0425 01:55:16.598770  9188 net.cpp:165] Memory required for data: 119832576
I0425 01:55:16.598773  9188 layer_factory.hpp:77] Creating layer conv2_2
I0425 01:55:16.598780  9188 net.cpp:100] Creating Layer conv2_2
I0425 01:55:16.598783  9188 net.cpp:434] conv2_2 <- conv2_1
I0425 01:55:16.598788  9188 net.cpp:408] conv2_2 -> conv2_2
I0425 01:55:16.599869  9188 net.cpp:150] Setting up conv2_2
I0425 01:55:16.599879  9188 net.cpp:157] Top shape: 1 128 149 149 (2841728)
I0425 01:55:16.599882  9188 net.cpp:165] Memory required for data: 131199488
I0425 01:55:16.599889  9188 layer_factory.hpp:77] Creating layer relu2_2
I0425 01:55:16.599895  9188 net.cpp:100] Creating Layer relu2_2
I0425 01:55:16.599897  9188 net.cpp:434] relu2_2 <- conv2_2
I0425 01:55:16.599902  9188 net.cpp:395] relu2_2 -> conv2_2 (in-place)
I0425 01:55:16.600103  9188 net.cpp:150] Setting up relu2_2
I0425 01:55:16.600111  9188 net.cpp:157] Top shape: 1 128 149 149 (2841728)
I0425 01:55:16.600116  9188 net.cpp:165] Memory required for data: 142566400
I0425 01:55:16.600118  9188 layer_factory.hpp:77] Creating layer pool2
I0425 01:55:16.600124  9188 net.cpp:100] Creating Layer pool2
I0425 01:55:16.600127  9188 net.cpp:434] pool2 <- conv2_2
I0425 01:55:16.600132  9188 net.cpp:408] pool2 -> pool2
I0425 01:55:16.600162  9188 net.cpp:150] Setting up pool2
I0425 01:55:16.600167  9188 net.cpp:157] Top shape: 1 128 75 75 (720000)
I0425 01:55:16.600169  9188 net.cpp:165] Memory required for data: 145446400
I0425 01:55:16.600172  9188 layer_factory.hpp:77] Creating layer conv3_1
I0425 01:55:16.600178  9188 net.cpp:100] Creating Layer conv3_1
I0425 01:55:16.600183  9188 net.cpp:434] conv3_1 <- pool2
I0425 01:55:16.600188  9188 net.cpp:408] conv3_1 -> conv3_1
I0425 01:55:16.601644  9188 net.cpp:150] Setting up conv3_1
I0425 01:55:16.601655  9188 net.cpp:157] Top shape: 1 256 75 75 (1440000)
I0425 01:55:16.601658  9188 net.cpp:165] Memory required for data: 151206400
I0425 01:55:16.601666  9188 layer_factory.hpp:77] Creating layer relu3_1
I0425 01:55:16.601672  9188 net.cpp:100] Creating Layer relu3_1
I0425 01:55:16.601675  9188 net.cpp:434] relu3_1 <- conv3_1
I0425 01:55:16.601680  9188 net.cpp:395] relu3_1 -> conv3_1 (in-place)
I0425 01:55:16.601804  9188 net.cpp:150] Setting up relu3_1
I0425 01:55:16.601810  9188 net.cpp:157] Top shape: 1 256 75 75 (1440000)
I0425 01:55:16.601814  9188 net.cpp:165] Memory required for data: 156966400
I0425 01:55:16.601817  9188 layer_factory.hpp:77] Creating layer conv3_2
I0425 01:55:16.601824  9188 net.cpp:100] Creating Layer conv3_2
I0425 01:55:16.601827  9188 net.cpp:434] conv3_2 <- conv3_1
I0425 01:55:16.601832  9188 net.cpp:408] conv3_2 -> conv3_2
I0425 01:55:16.603349  9188 net.cpp:150] Setting up conv3_2
I0425 01:55:16.603359  9188 net.cpp:157] Top shape: 1 256 75 75 (1440000)
I0425 01:55:16.603363  9188 net.cpp:165] Memory required for data: 162726400
I0425 01:55:16.603369  9188 layer_factory.hpp:77] Creating layer relu3_2
I0425 01:55:16.603376  9188 net.cpp:100] Creating Layer relu3_2
I0425 01:55:16.603379  9188 net.cpp:434] relu3_2 <- conv3_2
I0425 01:55:16.603384  9188 net.cpp:395] relu3_2 -> conv3_2 (in-place)
I0425 01:55:16.603508  9188 net.cpp:150] Setting up relu3_2
I0425 01:55:16.603516  9188 net.cpp:157] Top shape: 1 256 75 75 (1440000)
I0425 01:55:16.603520  9188 net.cpp:165] Memory required for data: 168486400
I0425 01:55:16.603523  9188 layer_factory.hpp:77] Creating layer conv3_3
I0425 01:55:16.603530  9188 net.cpp:100] Creating Layer conv3_3
I0425 01:55:16.603534  9188 net.cpp:434] conv3_3 <- conv3_2
I0425 01:55:16.603539  9188 net.cpp:408] conv3_3 -> conv3_3
I0425 01:55:16.605079  9188 net.cpp:150] Setting up conv3_3
I0425 01:55:16.605090  9188 net.cpp:157] Top shape: 1 256 75 75 (1440000)
I0425 01:55:16.605094  9188 net.cpp:165] Memory required for data: 174246400
I0425 01:55:16.605099  9188 layer_factory.hpp:77] Creating layer relu3_3
I0425 01:55:16.605105  9188 net.cpp:100] Creating Layer relu3_3
I0425 01:55:16.605109  9188 net.cpp:434] relu3_3 <- conv3_3
I0425 01:55:16.605114  9188 net.cpp:395] relu3_3 -> conv3_3 (in-place)
I0425 01:55:16.605330  9188 net.cpp:150] Setting up relu3_3
I0425 01:55:16.605340  9188 net.cpp:157] Top shape: 1 256 75 75 (1440000)
I0425 01:55:16.605342  9188 net.cpp:165] Memory required for data: 180006400
I0425 01:55:16.605346  9188 layer_factory.hpp:77] Creating layer pool3
I0425 01:55:16.605352  9188 net.cpp:100] Creating Layer pool3
I0425 01:55:16.605355  9188 net.cpp:434] pool3 <- conv3_3
I0425 01:55:16.605360  9188 net.cpp:408] pool3 -> pool3
I0425 01:55:16.605393  9188 net.cpp:150] Setting up pool3
I0425 01:55:16.605398  9188 net.cpp:157] Top shape: 1 256 38 38 (369664)
I0425 01:55:16.605401  9188 net.cpp:165] Memory required for data: 181485056
I0425 01:55:16.605404  9188 layer_factory.hpp:77] Creating layer conv4_1
I0425 01:55:16.605413  9188 net.cpp:100] Creating Layer conv4_1
I0425 01:55:16.605417  9188 net.cpp:434] conv4_1 <- pool3
I0425 01:55:16.605423  9188 net.cpp:408] conv4_1 -> conv4_1
I0425 01:55:16.608139  9188 net.cpp:150] Setting up conv4_1
I0425 01:55:16.608161  9188 net.cpp:157] Top shape: 1 512 38 38 (739328)
I0425 01:55:16.608165  9188 net.cpp:165] Memory required for data: 184442368
I0425 01:55:16.608172  9188 layer_factory.hpp:77] Creating layer relu4_1
I0425 01:55:16.608181  9188 net.cpp:100] Creating Layer relu4_1
I0425 01:55:16.608186  9188 net.cpp:434] relu4_1 <- conv4_1
I0425 01:55:16.608191  9188 net.cpp:395] relu4_1 -> conv4_1 (in-place)
I0425 01:55:16.608407  9188 net.cpp:150] Setting up relu4_1
I0425 01:55:16.608415  9188 net.cpp:157] Top shape: 1 512 38 38 (739328)
I0425 01:55:16.608418  9188 net.cpp:165] Memory required for data: 187399680
I0425 01:55:16.608422  9188 layer_factory.hpp:77] Creating layer conv4_2
I0425 01:55:16.608433  9188 net.cpp:100] Creating Layer conv4_2
I0425 01:55:16.608436  9188 net.cpp:434] conv4_2 <- conv4_1
I0425 01:55:16.608443  9188 net.cpp:408] conv4_2 -> conv4_2
I0425 01:55:16.613549  9188 net.cpp:150] Setting up conv4_2
I0425 01:55:16.613577  9188 net.cpp:157] Top shape: 1 512 38 38 (739328)
I0425 01:55:16.613582  9188 net.cpp:165] Memory required for data: 190356992
I0425 01:55:16.613595  9188 layer_factory.hpp:77] Creating layer relu4_2
I0425 01:55:16.613603  9188 net.cpp:100] Creating Layer relu4_2
I0425 01:55:16.613615  9188 net.cpp:434] relu4_2 <- conv4_2
I0425 01:55:16.613622  9188 net.cpp:395] relu4_2 -> conv4_2 (in-place)
I0425 01:55:16.613750  9188 net.cpp:150] Setting up relu4_2
I0425 01:55:16.613757  9188 net.cpp:157] Top shape: 1 512 38 38 (739328)
I0425 01:55:16.613760  9188 net.cpp:165] Memory required for data: 193314304
I0425 01:55:16.613765  9188 layer_factory.hpp:77] Creating layer conv4_3
I0425 01:55:16.613773  9188 net.cpp:100] Creating Layer conv4_3
I0425 01:55:16.613776  9188 net.cpp:434] conv4_3 <- conv4_2
I0425 01:55:16.613782  9188 net.cpp:408] conv4_3 -> conv4_3
I0425 01:55:16.618830  9188 net.cpp:150] Setting up conv4_3
I0425 01:55:16.618860  9188 net.cpp:157] Top shape: 1 512 38 38 (739328)
I0425 01:55:16.618863  9188 net.cpp:165] Memory required for data: 196271616
I0425 01:55:16.618870  9188 layer_factory.hpp:77] Creating layer relu4_3
I0425 01:55:16.618880  9188 net.cpp:100] Creating Layer relu4_3
I0425 01:55:16.618885  9188 net.cpp:434] relu4_3 <- conv4_3
I0425 01:55:16.618891  9188 net.cpp:395] relu4_3 -> conv4_3 (in-place)
I0425 01:55:16.619112  9188 net.cpp:150] Setting up relu4_3
I0425 01:55:16.619120  9188 net.cpp:157] Top shape: 1 512 38 38 (739328)
I0425 01:55:16.619123  9188 net.cpp:165] Memory required for data: 199228928
I0425 01:55:16.619127  9188 layer_factory.hpp:77] Creating layer pool4
I0425 01:55:16.619134  9188 net.cpp:100] Creating Layer pool4
I0425 01:55:16.619138  9188 net.cpp:434] pool4 <- conv4_3
I0425 01:55:16.619144  9188 net.cpp:408] pool4 -> pool4
I0425 01:55:16.619176  9188 net.cpp:150] Setting up pool4
I0425 01:55:16.619181  9188 net.cpp:157] Top shape: 1 512 19 19 (184832)
I0425 01:55:16.619184  9188 net.cpp:165] Memory required for data: 199968256
I0425 01:55:16.619187  9188 layer_factory.hpp:77] Creating layer pool4_pool4_0_split
I0425 01:55:16.619194  9188 net.cpp:100] Creating Layer pool4_pool4_0_split
I0425 01:55:16.619196  9188 net.cpp:434] pool4_pool4_0_split <- pool4
I0425 01:55:16.619201  9188 net.cpp:408] pool4_pool4_0_split -> pool4_pool4_0_split_0
I0425 01:55:16.619206  9188 net.cpp:408] pool4_pool4_0_split -> pool4_pool4_0_split_1
I0425 01:55:16.619231  9188 net.cpp:150] Setting up pool4_pool4_0_split
I0425 01:55:16.619235  9188 net.cpp:157] Top shape: 1 512 19 19 (184832)
I0425 01:55:16.619240  9188 net.cpp:157] Top shape: 1 512 19 19 (184832)
I0425 01:55:16.619242  9188 net.cpp:165] Memory required for data: 201446912
I0425 01:55:16.619246  9188 layer_factory.hpp:77] Creating layer conv5_1
I0425 01:55:16.619254  9188 net.cpp:100] Creating Layer conv5_1
I0425 01:55:16.619257  9188 net.cpp:434] conv5_1 <- pool4_pool4_0_split_0
I0425 01:55:16.619262  9188 net.cpp:408] conv5_1 -> conv5_1
I0425 01:55:16.624374  9188 net.cpp:150] Setting up conv5_1
I0425 01:55:16.624403  9188 net.cpp:157] Top shape: 1 512 19 19 (184832)
I0425 01:55:16.624408  9188 net.cpp:165] Memory required for data: 202186240
I0425 01:55:16.624416  9188 layer_factory.hpp:77] Creating layer relu5_1
I0425 01:55:16.624425  9188 net.cpp:100] Creating Layer relu5_1
I0425 01:55:16.624430  9188 net.cpp:434] relu5_1 <- conv5_1
I0425 01:55:16.624438  9188 net.cpp:395] relu5_1 -> conv5_1 (in-place)
I0425 01:55:16.624570  9188 net.cpp:150] Setting up relu5_1
I0425 01:55:16.624577  9188 net.cpp:157] Top shape: 1 512 19 19 (184832)
I0425 01:55:16.624580  9188 net.cpp:165] Memory required for data: 202925568
I0425 01:55:16.624584  9188 layer_factory.hpp:77] Creating layer conv5_2
I0425 01:55:16.624593  9188 net.cpp:100] Creating Layer conv5_2
I0425 01:55:16.624598  9188 net.cpp:434] conv5_2 <- conv5_1
I0425 01:55:16.624603  9188 net.cpp:408] conv5_2 -> conv5_2
I0425 01:55:16.629789  9188 net.cpp:150] Setting up conv5_2
I0425 01:55:16.629813  9188 net.cpp:157] Top shape: 1 512 19 19 (184832)
I0425 01:55:16.629818  9188 net.cpp:165] Memory required for data: 203664896
I0425 01:55:16.629825  9188 layer_factory.hpp:77] Creating layer relu5_2
I0425 01:55:16.629834  9188 net.cpp:100] Creating Layer relu5_2
I0425 01:55:16.629839  9188 net.cpp:434] relu5_2 <- conv5_2
I0425 01:55:16.629847  9188 net.cpp:395] relu5_2 -> conv5_2 (in-place)
I0425 01:55:16.629987  9188 net.cpp:150] Setting up relu5_2
I0425 01:55:16.629993  9188 net.cpp:157] Top shape: 1 512 19 19 (184832)
I0425 01:55:16.629997  9188 net.cpp:165] Memory required for data: 204404224
I0425 01:55:16.630000  9188 layer_factory.hpp:77] Creating layer conv5_3
I0425 01:55:16.630014  9188 net.cpp:100] Creating Layer conv5_3
I0425 01:55:16.630018  9188 net.cpp:434] conv5_3 <- conv5_2
I0425 01:55:16.630024  9188 net.cpp:408] conv5_3 -> conv5_3
I0425 01:55:16.635262  9188 net.cpp:150] Setting up conv5_3
I0425 01:55:16.635285  9188 net.cpp:157] Top shape: 1 512 19 19 (184832)
I0425 01:55:16.635289  9188 net.cpp:165] Memory required for data: 205143552
I0425 01:55:16.635298  9188 layer_factory.hpp:77] Creating layer relu5_3
I0425 01:55:16.635306  9188 net.cpp:100] Creating Layer relu5_3
I0425 01:55:16.635311  9188 net.cpp:434] relu5_3 <- conv5_3
I0425 01:55:16.635318  9188 net.cpp:395] relu5_3 -> conv5_3 (in-place)
I0425 01:55:16.635563  9188 net.cpp:150] Setting up relu5_3
I0425 01:55:16.635573  9188 net.cpp:157] Top shape: 1 512 19 19 (184832)
I0425 01:55:16.635576  9188 net.cpp:165] Memory required for data: 205882880
I0425 01:55:16.635581  9188 layer_factory.hpp:77] Creating layer pool5
I0425 01:55:16.635588  9188 net.cpp:100] Creating Layer pool5
I0425 01:55:16.635591  9188 net.cpp:434] pool5 <- conv5_3
I0425 01:55:16.635597  9188 net.cpp:408] pool5 -> pool5
I0425 01:55:16.635633  9188 net.cpp:150] Setting up pool5
I0425 01:55:16.635639  9188 net.cpp:157] Top shape: 1 512 10 10 (51200)
I0425 01:55:16.635643  9188 net.cpp:165] Memory required for data: 206087680
I0425 01:55:16.635645  9188 layer_factory.hpp:77] Creating layer fc6
I0425 01:55:16.635654  9188 net.cpp:100] Creating Layer fc6
I0425 01:55:16.635658  9188 net.cpp:434] fc6 <- pool5
I0425 01:55:16.635663  9188 net.cpp:408] fc6 -> fc6
I0425 01:55:16.850718  9188 net.cpp:150] Setting up fc6
I0425 01:55:16.850746  9188 net.cpp:157] Top shape: 1 4096 4 4 (65536)
I0425 01:55:16.850749  9188 net.cpp:165] Memory required for data: 206349824
I0425 01:55:16.850759  9188 layer_factory.hpp:77] Creating layer relu6
I0425 01:55:16.850769  9188 net.cpp:100] Creating Layer relu6
I0425 01:55:16.850774  9188 net.cpp:434] relu6 <- fc6
I0425 01:55:16.850780  9188 net.cpp:395] relu6 -> fc6 (in-place)
I0425 01:55:16.851006  9188 net.cpp:150] Setting up relu6
I0425 01:55:16.851016  9188 net.cpp:157] Top shape: 1 4096 4 4 (65536)
I0425 01:55:16.851018  9188 net.cpp:165] Memory required for data: 206611968
I0425 01:55:16.851022  9188 layer_factory.hpp:77] Creating layer drop6
I0425 01:55:16.851030  9188 net.cpp:100] Creating Layer drop6
I0425 01:55:16.851034  9188 net.cpp:434] drop6 <- fc6
I0425 01:55:16.851038  9188 net.cpp:395] drop6 -> fc6 (in-place)
I0425 01:55:16.851063  9188 net.cpp:150] Setting up drop6
I0425 01:55:16.851068  9188 net.cpp:157] Top shape: 1 4096 4 4 (65536)
I0425 01:55:16.851071  9188 net.cpp:165] Memory required for data: 206874112
I0425 01:55:16.851074  9188 layer_factory.hpp:77] Creating layer fc7
I0425 01:55:16.851083  9188 net.cpp:100] Creating Layer fc7
I0425 01:55:16.851086  9188 net.cpp:434] fc7 <- fc6
I0425 01:55:16.851092  9188 net.cpp:408] fc7 -> fc7
I0425 01:55:16.886993  9188 net.cpp:150] Setting up fc7
I0425 01:55:16.887023  9188 net.cpp:157] Top shape: 1 4096 4 4 (65536)
I0425 01:55:16.887027  9188 net.cpp:165] Memory required for data: 207136256
I0425 01:55:16.887035  9188 layer_factory.hpp:77] Creating layer relu7
I0425 01:55:16.887044  9188 net.cpp:100] Creating Layer relu7
I0425 01:55:16.887049  9188 net.cpp:434] relu7 <- fc7
I0425 01:55:16.887058  9188 net.cpp:395] relu7 -> fc7 (in-place)
I0425 01:55:16.887187  9188 net.cpp:150] Setting up relu7
I0425 01:55:16.887194  9188 net.cpp:157] Top shape: 1 4096 4 4 (65536)
I0425 01:55:16.887197  9188 net.cpp:165] Memory required for data: 207398400
I0425 01:55:16.887200  9188 layer_factory.hpp:77] Creating layer drop7
I0425 01:55:16.887207  9188 net.cpp:100] Creating Layer drop7
I0425 01:55:16.887212  9188 net.cpp:434] drop7 <- fc7
I0425 01:55:16.887223  9188 net.cpp:395] drop7 -> fc7 (in-place)
I0425 01:55:16.887244  9188 net.cpp:150] Setting up drop7
I0425 01:55:16.887249  9188 net.cpp:157] Top shape: 1 4096 4 4 (65536)
I0425 01:55:16.887253  9188 net.cpp:165] Memory required for data: 207660544
I0425 01:55:16.887255  9188 layer_factory.hpp:77] Creating layer score_fr
I0425 01:55:16.887264  9188 net.cpp:100] Creating Layer score_fr
I0425 01:55:16.887267  9188 net.cpp:434] score_fr <- fc7
I0425 01:55:16.887274  9188 net.cpp:408] score_fr -> score_fr
I0425 01:55:16.888033  9188 net.cpp:150] Setting up score_fr
I0425 01:55:16.888043  9188 net.cpp:157] Top shape: 1 2 4 4 (32)
I0425 01:55:16.888047  9188 net.cpp:165] Memory required for data: 207660672
I0425 01:55:16.888052  9188 layer_factory.hpp:77] Creating layer upscore2
I0425 01:55:16.888064  9188 net.cpp:100] Creating Layer upscore2
I0425 01:55:16.888068  9188 net.cpp:434] upscore2 <- score_fr
I0425 01:55:16.888073  9188 net.cpp:408] upscore2 -> upscore2
I0425 01:55:16.888211  9188 net.cpp:150] Setting up upscore2
I0425 01:55:16.888216  9188 net.cpp:157] Top shape: 1 2 10 10 (200)
I0425 01:55:16.888218  9188 net.cpp:165] Memory required for data: 207661472
I0425 01:55:16.888229  9188 layer_factory.hpp:77] Creating layer upscore2_upscore2_0_split
I0425 01:55:16.888234  9188 net.cpp:100] Creating Layer upscore2_upscore2_0_split
I0425 01:55:16.888237  9188 net.cpp:434] upscore2_upscore2_0_split <- upscore2
I0425 01:55:16.888242  9188 net.cpp:408] upscore2_upscore2_0_split -> upscore2_upscore2_0_split_0
I0425 01:55:16.888247  9188 net.cpp:408] upscore2_upscore2_0_split -> upscore2_upscore2_0_split_1
I0425 01:55:16.888274  9188 net.cpp:150] Setting up upscore2_upscore2_0_split
I0425 01:55:16.888281  9188 net.cpp:157] Top shape: 1 2 10 10 (200)
I0425 01:55:16.888284  9188 net.cpp:157] Top shape: 1 2 10 10 (200)
I0425 01:55:16.888288  9188 net.cpp:165] Memory required for data: 207663072
I0425 01:55:16.888291  9188 layer_factory.hpp:77] Creating layer score_pool4
I0425 01:55:16.888296  9188 net.cpp:100] Creating Layer score_pool4
I0425 01:55:16.888300  9188 net.cpp:434] score_pool4 <- pool4_pool4_0_split_1
I0425 01:55:16.888305  9188 net.cpp:408] score_pool4 -> score_pool4
I0425 01:55:16.889127  9188 net.cpp:150] Setting up score_pool4
I0425 01:55:16.889137  9188 net.cpp:157] Top shape: 1 2 19 19 (722)
I0425 01:55:16.889140  9188 net.cpp:165] Memory required for data: 207665960
I0425 01:55:16.889147  9188 layer_factory.hpp:77] Creating layer score_pool4c
I0425 01:55:16.889154  9188 net.cpp:100] Creating Layer score_pool4c
I0425 01:55:16.889158  9188 net.cpp:434] score_pool4c <- score_pool4
I0425 01:55:16.889163  9188 net.cpp:434] score_pool4c <- upscore2_upscore2_0_split_0
I0425 01:55:16.889166  9188 net.cpp:408] score_pool4c -> score_pool4c
I0425 01:55:16.889195  9188 net.cpp:150] Setting up score_pool4c
I0425 01:55:16.889200  9188 net.cpp:157] Top shape: 1 2 10 10 (200)
I0425 01:55:16.889204  9188 net.cpp:165] Memory required for data: 207666760
I0425 01:55:16.889206  9188 layer_factory.hpp:77] Creating layer fuse_pool4
I0425 01:55:16.889214  9188 net.cpp:100] Creating Layer fuse_pool4
I0425 01:55:16.889219  9188 net.cpp:434] fuse_pool4 <- upscore2_upscore2_0_split_1
I0425 01:55:16.889221  9188 net.cpp:434] fuse_pool4 <- score_pool4c
I0425 01:55:16.889226  9188 net.cpp:408] fuse_pool4 -> fuse_pool4
I0425 01:55:16.889247  9188 net.cpp:150] Setting up fuse_pool4
I0425 01:55:16.889252  9188 net.cpp:157] Top shape: 1 2 10 10 (200)
I0425 01:55:16.889256  9188 net.cpp:165] Memory required for data: 207667560
I0425 01:55:16.889258  9188 layer_factory.hpp:77] Creating layer upscore16
I0425 01:55:16.889264  9188 net.cpp:100] Creating Layer upscore16
I0425 01:55:16.889267  9188 net.cpp:434] upscore16 <- fuse_pool4
I0425 01:55:16.889272  9188 net.cpp:408] upscore16 -> upscore16
I0425 01:55:16.889410  9188 net.cpp:150] Setting up upscore16
I0425 01:55:16.889415  9188 net.cpp:157] Top shape: 1 2 176 176 (61952)
I0425 01:55:16.889418  9188 net.cpp:165] Memory required for data: 207915368
I0425 01:55:16.889422  9188 layer_factory.hpp:77] Creating layer score
I0425 01:55:16.889430  9188 net.cpp:100] Creating Layer score
I0425 01:55:16.889434  9188 net.cpp:434] score <- upscore16
I0425 01:55:16.889438  9188 net.cpp:434] score <- data_data_0_split_1
I0425 01:55:16.889443  9188 net.cpp:408] score -> score
I0425 01:55:16.889462  9188 net.cpp:150] Setting up score
I0425 01:55:16.889467  9188 net.cpp:157] Top shape: 1 2 100 100 (20000)
I0425 01:55:16.889469  9188 net.cpp:165] Memory required for data: 207995368
I0425 01:55:16.889472  9188 layer_factory.hpp:77] Creating layer score_score_0_split
I0425 01:55:16.889477  9188 net.cpp:100] Creating Layer score_score_0_split
I0425 01:55:16.889480  9188 net.cpp:434] score_score_0_split <- score
I0425 01:55:16.889484  9188 net.cpp:408] score_score_0_split -> score_score_0_split_0
I0425 01:55:16.889489  9188 net.cpp:408] score_score_0_split -> score_score_0_split_1
I0425 01:55:16.889514  9188 net.cpp:150] Setting up score_score_0_split
I0425 01:55:16.889519  9188 net.cpp:157] Top shape: 1 2 100 100 (20000)
I0425 01:55:16.889523  9188 net.cpp:157] Top shape: 1 2 100 100 (20000)
I0425 01:55:16.889526  9188 net.cpp:165] Memory required for data: 208155368
I0425 01:55:16.889529  9188 layer_factory.hpp:77] Creating layer loss
I0425 01:55:16.889536  9188 net.cpp:100] Creating Layer loss
I0425 01:55:16.889540  9188 net.cpp:434] loss <- score_score_0_split_0
I0425 01:55:16.889544  9188 net.cpp:434] loss <- label_data_1_split_0
I0425 01:55:16.889549  9188 net.cpp:408] loss -> loss
I0425 01:55:16.889557  9188 layer_factory.hpp:77] Creating layer loss
I0425 01:55:16.889873  9188 net.cpp:150] Setting up loss
I0425 01:55:16.889881  9188 net.cpp:157] Top shape: (1)
I0425 01:55:16.889884  9188 net.cpp:160]     with loss weight 1
I0425 01:55:16.889897  9188 net.cpp:165] Memory required for data: 208155372
I0425 01:55:16.889901  9188 layer_factory.hpp:77] Creating layer dice
I0425 01:55:16.890077  9188 net.cpp:100] Creating Layer dice
I0425 01:55:16.890085  9188 net.cpp:434] dice <- score_score_0_split_1
I0425 01:55:16.890090  9188 net.cpp:434] dice <- label_data_1_split_1
I0425 01:55:16.890095  9188 net.cpp:408] dice -> dice
I0425 01:55:16.890177  9188 net.cpp:150] Setting up dice
I0425 01:55:16.890184  9188 net.cpp:157] Top shape: 1 (1)
I0425 01:55:16.890187  9188 net.cpp:165] Memory required for data: 208155376
I0425 01:55:16.890192  9188 net.cpp:228] dice does not need backward computation.
I0425 01:55:16.890195  9188 net.cpp:226] loss needs backward computation.
I0425 01:55:16.890199  9188 net.cpp:226] score_score_0_split needs backward computation.
I0425 01:55:16.890202  9188 net.cpp:226] score needs backward computation.
…
